02_CE_method/models/acro2.pt (torch_old, 14470 bytes, 4 tensors)

weight f4 [128, 6]
0.25952294 0.30717117 0.14662357 -0.019762563 -0.25480783 0.09366172 0.4255664 0.70171046
-0.2603711 -0.31460387 0.2413023 0.46640226 -0.19610238 -0.9065409 -0.48466545 0.5019189
1.2623714 0.0076974183 0.5699591 0.50248456 0.6417876 0.1457468 -0.33425447 0.41751584
0.14601839 -0.44000617 -0.7607436 0.5868656 1.2107142 0.03179834 -0.84208244 -0.38235083
-0.32678932 -0.3757596 0.30284306 0.28994504 0.12081463 0.15591623 -0.18261296 -0.54726505
-0.00027751224 -0.6396792 0.24171057 -0.851568 -0.3661107 0.9456936 -0.054782413 0.32247016
0.025354631 0.34673226 0.41607296 -0.17091288 0.7914047 0.49022275 0.34309787 -0.19490539
0.13613065 -0.31604025 1.3841951 -1.0258896 0.14095704 -0.650602 0.14443284 -0.28442696
1.0213288 -1.0287573 0.26038647 0.28781402 0.44834146 -0.17924991 -0.5088906 -0.4674073
0.05645144 0.42271176 -0.019685226 -0.8560561 -0.33540106 -0.39628938 0.17637493 0.0032571969
-0.1615315 -0.9307807 0.9027936 -0.70556176 0.3523561 0.28130043 0.1079229 -0.34909326
-0.21945505 0.29401308 0.38069025 -0.038091633 0.50791717 -0.031101886 -0.28643867 -0.2259023
-0.13400528 -0.17866255 -0.16238399 -0.020013405 -0.15237154 -0.09086545 0.2547667 0.27397233
-0.6202617 -0.008615061 -0.16748111 0.8732581 0.074634984 0.2998319 0.47831735 -0.015002074
-0.5359631 -0.5794609 0.118985735 0.36848113 -0.08816583 -0.31760925 0.14310032 0.23276865
-0.23397946 0.092912816 -0.26422352 -0.062374853 -0.11890126 1.0635525 0.115263745 -0.48858958
-0.685763 0.4135448 1.4990537 0.10233384 0.17501645 0.31862378 0.37061173 0.036140103
-0.48240557 -0.3817069 -0.13158901 -0.7225214 0.20936085 0.9587007 -0.029929 0.26999372
-0.07316022 -0.20487477 -0.15963975 -0.69320416 0.7354466 -0.97049296 -0.56690025 -0.52652293
0.23657602 -0.049222082 -0.20391946 -0.25347346 -0.6490833 0.29946023 -0.78156996 0.13500766
0.09008537 0.16806974 -0.07044984 0.36686504 0.60378116 -0.19952634 -0.8019557 0.44453537
0.15364115 -0.13661712 -0.11357805 0.20284069 0.37440228 -1.1588335 0.00899718 -0.09415195
0.35515207 0.19227125 0.08065897 -0.06534165 -0.030886639 -0.44730943 0.4868529 0.6992014
-0.1882208 0.45356974 0.020406177 -0.36842147 -0.7887886 0.23543867 -0.44469526 0.5949771
-0.0688974 0.93611336 0.30207464 -0.5656977 0.14382958 -0.32628515 0.1550342 -0.4663142
-0.08128442 -0.15608403 -0.079821266 0.26195493 -0.524837 0.6296257 0.10835741 -0.72544074
0.33184272 -0.91308165 -0.9571155 0.19834682 -0.56943023 -0.035098597 1.0222093 0.0019222519
0.50632995 0.39461163 0.41614467 -0.9910929 0.46052366 -0.3910727 0.34204352 -0.15456297
-0.17498982 -1.0451667 1.0210775 -0.7933886 -0.33357102 -0.5766832 -0.13023406 0.93558997
-0.09682359 0.19548485 0.201258 -0.19013599 -0.45052662 0.392595 0.974342 -0.45593676
0.3610889 0.2146589 -0.058879014 -0.015702141 0.4597267 -0.06112087 0.077928394 -0.020941345
0.32099456 0.6010166 0.3192923 -0.06073009 -0.3563388 -0.18562983 -0.15830623 -0.19914502
00000000: 31e0 843e 8a45 9d3e 7d24 163e 19e5 a1bc
00000010: 2c76 82be b7d1 bf3d d7e3 d93e 4ca3 333f
00000020: 5c4f 85be c213 a1be f317 773e 47cc ee3e
00000030: 10cf 48be 1013 68bf 1226 f8be c27d 003f
00000040: 6395 a13f a03a fc3b d7e8 113f d4a2 003f
00000050: 314c 243f a63e 153e 6723 abbe a3c4 d53e
00000060: d885 153e 7d48 e1be 18c0 42bf d33c 163f
00000070: aff8 9a3f fa3e 023d b792 57bf 7dc3 c3be
00000080: ee50 a7be 9063 c0be 3f0e 9b3e ad73 943e
00000090: a96d f73d 81a8 1f3e e4fe 3abe 9019 0cbf
000000a0: 107f 91b9 04c2 23bf fa82 773e 5c00 5abf
000000b0: dd72 bbbe fa18 723f 8663 60bd cf1a a53e
000000c0: 84b4 cf3c e486 b13e 8407 d53e c903 2fbe
000000d0: 8099 4a3f 7afe fa3e 86aa af3e 4795 47be
000000e0: d565 0b3e 07d0 a1be 4e2d b13f 5a50 83bf
000000f0: 0b57 103e da8d 26bf 34e6 133e 69a0 91be
00000100: e7ba 823f 52ae 83bf 6051 853e 5c5c 933e
00000110: 038d e53e 4a8d 37be a846 02bf 0250 efbe
00000120: a039 673d ad6d d83e e942 a1bc 7e26 5bbf
00000130: b0b9 abbe 71e6 cabe a19b 343e b276 553b
00000140: 8368 25be a547 6ebf 7b1d 673f b29f 34bf
00000150: 0568 b43e 9c06 903e ae06 dd3d 5abc b2be
00000160: d3b8 60be e288 963e d5e9 c23e f905 1cbd
00000170: dc06 023f 62c9 febc 17a8 92be ef52 67be
00000180: ae38 09be 51f3 36be fd47 26be 27f3 a3bc
00000190: 4907 1cbe aa17 babd c870 823e 1a46 8c3e
000001a0: 79c9 1ebf 2f26 0dbc 2b80 2bbe d88d 5f3f
000001b0: 3ada 983d 9183 993e 03e6 f43e 42cb 75bc
000001c0: e134 09bf 8d57 14bf cbae f33d 8fa9 bc3e
000001d0: 4990 b4bd ae9d a2be e488 123e e85a 6e3e
000001e0: 5098 6fbe 1349 be3d 4e48 87be c67c 7fbd
000001f0: 8182 f3bd 7d22 883f 660f ec3d 6a28 fabe
00000200: 2a8e 2fbf 25bc d33e fee0 bf3f 6894 d13d
00000210: 8337 333e a822 a33e d2c0 bd3e a507 143d
00000220: ddfd f6be 166f c3be 45bf 06be 2af7 38bf
00000230: b162 563e 696d 753f aa2d f5bc 9e3c 8a3e
00000240: 07d5 95bd b1ca 51be 9a78 23be d475 31bf
00000250: 3a46 3c3f 3a72 78bf 6020 11bf 35ca 06bf
00000260: fc40 723e 189d 49bd 43d0 50be 46c7 81be
00000270: 532a 26bf da52 993e f814 48bf 733f 0a3e
00000280: ae7e b83d 791a 2c3e 0148 90bd bcd5 bb3e
00000290: 6791 1a3f a250 4cbe f84c 4dbf 249a e33e
000002a0: 1b54 1d3e 5ce5 0bbe 9c9b e8bd 78b5 4f3e
000002b0: a8b1 bf3e a854 94bf e868 133c bdd2 c0bd
000002c0: 7ed6 b53e c1e2 443e 8830 a53d d8d1 85bd
000002d0: fa05 fdbc be05 e5be c944 f93e ddfe 323f
000002e0: f4bc 40be 4b3a e83e db2a a73c bda1 bcbe
000002f0: 0dee 49bf d616 713e 19af e3be 6b50 183f
00000300: 141a 8dbd 20a5 6f3f 87a9 9a3e 91d1 10bf
00000310: 1048 133e d90e a7be 49c1 1e3e bcc0 eebe
00000320: 7278 a6bd 7ed4 1fbe 5579 a3bd f51e 863e
00000330: b85b 06bf 262f 213f 7dea dd3d 7cb6 39bf
00000340: 4ae7 a93e b8bf 69bf 8505 75bf 6e1b 4b3e
00000350: 2ec6 11bf 8cc3 0fbd c1d7 823f 12f4 fb3a
00000360: d79e 013f 890a ca3e ea10 d53e 44b8 7dbf
00000370: c2c9 eb3e ae3a c8be 5420 af3e c145 1ebe
00000380: 8830 33be 06c8 85bf abb2 823f 841b 4bbf
00000390: d2c9 aabe 83a1 13bf 145c 05be d382 6f3f
000003a0: 724b c6bd 2e2d 483e 9416 4e3e 02b3 42be
000003b0: 6dab e6be 3602 c93e 7a6e 793f 8b70 e9be
000003c0: a5e0 b83e 8bcf 5b3e 1f2b 71bd c7a1 80bc
000003d0: 4c61 eb3e e159 7abd ec98 9f3d 2f8d abbc
000003e0: 6659 a43e 39dc 193f 487a a33e 1dc0 78bd
000003f0: 0a72 b6be bf15 3ebe 071b 22be acec 4bbe

bias f4 [128]
0.34577096 0.24826336 0.014291514 0.01198548 -0.024177885 -0.32909417 0.0054037813 -0.2759973
0.08735689 -0.3909977 -0.27992007 0.20895684 0.19923836 -0.0096851615 0.21809259 -0.36083072
-0.6106817 -0.25262117 0.3408635 0.29794613 -0.2233858 0.01225733 0.13633305 0.27294582
0.26399928 -0.19592017 -0.3716574 0.2968368 -0.11587917 0.4184823 -0.09105179 0.25033808
0.094241895 0.2137788 -0.33403546 -0.202832 -0.38137335 -0.13468252 0.11550088 0.5001841
0.17988184 0.022609115 0.16934069 -0.065977365 -0.33643952 0.079927504 -0.22917618 -0.3236133
-0.053116914 0.34754938 0.35297063 -0.071971975 0.3990979 -0.20333846 -0.47990954 -0.37082258
-0.37594315 -0.040746666 -0.14804259 0.15336314 0.11329819 -0.08283799 -0.23940226 -0.25561383
-0.19738156 -0.38732794 0.27868858 0.017891267 0.17126815 -0.035643093 -0.10062452 -0.13390054
0.03413768 0.23406447 0.40048593 0.060899995 0.17018268 -0.1515468 -0.01973094 -0.050697166
0.0016615504 0.24613915 -0.3516996 0.2884583 0.1506909 -0.3569114 -0.43205738 0.485001
0.16831692 -0.44012374 0.56082636 -0.19403367 0.13051967 -0.06190821 0.03780487 0.026317934
0.0703771 -0.14345247 0.13244657 0.0904254 0.37458023 -0.41284648 0.4666849 0.22326012
-0.3789077 0.25168526 0.49591956 -0.28807166 0.10353841 -0.14246668 -0.3649335 0.017047625
0.106326476 0.28413075 -0.3953302 -0.1497196 -0.035780124 0.08975081 0.35943264 0.46032506
-0.35608715 0.22669387 -0.372984 -0.0033214102 -0.15847546 0.0066890977 -0.33794054 -0.45751455
00000000: e408 b13e c038 7e3e f426 6a3c bf5e 443c
00000010: b310 c6bc 087f a8be 3412 b13b 854f 8dbe
00000020: 2be8 b23d da30 c8be af51 8fbe c8f8 553e
00000030: 2405 4c3e 83ae 1ebc aa53 5f3e cebe b8be
00000040: a355 1cbf 9057 81be a985 ae3e 658c 983e
00000050: 3fbf 64be f8d2 483c e49a 0b3e 8ebf 8b3e
00000060: ea2a 873e 4c9f 48be e149 bebe fefa 973e
00000070: 0f52 edbd 5043 d63e 5c79 babd 502c 803e
00000080: e501 c13d d4e8 5a3e b206 abbe 31b3 4fbe
00000090: 5e43 c3be 37ea 09be ba8b ec3d 110c 003f
000000a0: f232 383e c036 b93c a567 2d3e 241f 87bd
000000b0: cd41 acbe 08b1 a33d 29ad 6abe a4b0 a5be
000000c0: 1f91 59bd fef1 b13e 91b8 b43e 0b66 93bd
000000d0: 8f56 cc3e f537 50be b4b6 f5be 75dc bdbe
000000e0: 9f7b c0be fae5 26bd 7a98 17be 3a0b 1d3e
000000f0: e208 e83d f7a6 a9bd de25 75be d1df 82be
00000100: 641e 4abe d94f c6be 45b0 8e3e b590 923c
00000110: eb60 2f3e 7efe 11bd 3a14 cebd 391d 09be
00000120: f4d3 0b3d 99ae 6f3e 7e0c cd3e 4672 793d
00000130: 5e44 2e3e 162f 1bbe c8a2 a1bc d5a7 4fbd
00000140: 61c8 d93a e70b 7c3e f811 b4be ceb0 933e
00000150: b74e 1a3e 17bd b6be a036 ddbe 0d52 f83e
00000160: 455b 2c3e e657 e1be 5192 0f3f c3b0 46be
00000170: f3a6 053e 7793 7dbd 48d9 1a3d b598 d73c
00000180: de21 903d 34e5 12be 13a0 073e f430 b93d
00000190: fbc8 bf3e 9d60 d3be 53f1 ee3e 4d9e 643e
000001a0: 3100 c2be e4dc 803e 2be9 fd3e 217e 93be
000001b0: f20b d43d c9e2 11be 90d8 babe 76a7 8b3c
000001c0: b2c1 d93d 9679 913e b868 cabe 1850 19be
000001d0: 2e8e 12bd 46cf b73d 8e07 b83e baaf eb3e
000001e0: 0e51 b6be 7022 683e c2f7 bebe 04ac 59bb
000001f0: 6447 22be 3830 db3b 8b06 adbe 593f eabe

weight f4 [3, 128]
-0.08171961 -0.21207684 0.9627451 -0.10398692 0.86393046 0.09413701 0.12318626 -0.5878929
-0.3489741 0.6492193 0.89940095 0.14415325 -0.056396518 0.477046 -0.0993759 0.23428442
-0.17582344 -0.44710836 0.16028455 -0.17499977 -0.28683925 0.64832777 0.11678647 0.44727102
0.421872 0.03597192 -0.30899787 0.18618958 1.3186219 0.12907666 0.25438678 -0.6078432
-0.41239455 0.073661834 0.9247549 0.10798679 -0.5251615 0.45690322 -0.56908655 0.8958484
-0.034413744 0.046456162 -0.631127 0.25892562 1.0089508 0.14509581 -0.6100049 0.5255217
0.42232826 -0.08617528 0.062457763 0.34850264 -0.59138453 -0.87553287 -1.2509831 0.23905818
0.63324904 0.4796244 0.105660155 -0.078320734 0.6628397 0.60839903 -0.94222015 0.5988582
-0.6923934 -0.4291415 -0.15007053 0.61235154 0.1760242 0.64203763 -0.2513054 -0.6979307
0.31364572 -0.4932641 -0.5369414 0.62376475 -0.4800007 0.60767186 0.49996337 -0.25975245
-0.22650775 0.50921005 -1.0477765 -0.21880044 -0.004590377 -0.7278856 -0.22035044 0.1272179
-0.26040623 0.8889585 -0.14411639 0.37490883 -0.34872657 0.16176477 0.3982941 0.20131978
0.37647748 -0.53780705 -0.21784005 0.3173462 -0.16025957 0.05380635 0.11353024 0.31919116
-1.3521059 0.24927935 -0.48323107 0.4991257 0.31015682 0.5880888 0.20553586 -0.5912196
0.24714082 -0.0794145 0.02173787 0.7323909 0.052181073 0.65503925 -0.08631876 0.0066503515
-0.043519236 0.33131886 0.15021683 0.43920025 -0.005026569 0.47222945 1.1945723 0.7966797
0.020917013 -0.17115867 -0.8079445 -0.16807076 -1.0659363 -0.69932634 -0.30690023 0.42672193
-0.075413845 0.3819146 0.2282643 -0.40686658 -0.3558073 0.055423096 -0.0042046313 -0.32074773
-0.20266913 -0.5887209 -0.3980819 -0.1098712 -0.79977876 -0.80922115 -0.52892596 -0.15691909
0.039747104 -0.2559097 -0.08636804 -0.79196227 -0.9490549 -0.07014602 -0.17507604 0.14026423
-0.14288132 0.07367095 -0.8514743 -1.2112129 -0.020405643 0.1634874 0.39604726 -0.5491178
-0.13267879 -0.13393219 0.06332853 -0.038990323 -0.9967707 -0.35320127 -0.8031926 -1.0138531
-0.5839788 -0.36206472 -0.50762004 0.31682128 0.022134662 -0.85217434 0.24868661 -0.078549854
-1.0840031 -0.20290226 -0.031980038 0.013813682 -0.24064255 0.18940306 0.024453845 -0.6719685
-0.08889778 -0.054890882 -0.031748366 -0.5925115 -0.19092976 -0.20851563 -0.41357633 0.034644455
-0.078618795 0.11699242 0.053643364 -0.6803047 0.12589774 -0.27073973 -0.6933784 -0.016282422
-0.17051975 -0.43524432 -0.7468892 -0.1427627 -0.013764987 -0.13351746 -0.2657206 -0.22916664
-0.24930443 -0.68183994 -0.16845286 -0.17963679 -0.19482622 -0.37201738 -0.42779425 -0.050564848
-0.13911499 0.2934936 -0.031880204 -0.16621897 -0.078754365 -0.18645975 -0.31663013 -0.14080271
0.5668295 -0.16827591 0.103503115 -0.4558931 -0.15986337 -0.5813307 -0.116855845 0.20595758
-0.13496822 -0.10401469 -0.058707096 -0.68958503 -0.013893021 0.1600254 -0.021173028 -0.3992847
-0.5907381 -0.03161815 -0.018385649 -0.078593 -0.008123702 -0.600395 -0.12686086 -0.21347907
00000000: 9c5c a7bd ac2a 59be 7676 763f 18f7 d4bd
00000010: 8c2a 5d3f e8ca c03d 1449 fc3d 2680 16bf
00000020: bcac b2be 3c33 263f 243f 663f e99c 133e
00000030: 0900 67bd 603f f43e 9885 cbbd 41e8 6f3e
00000040: 0f0b 34be 63eb e4be a221 243e 2433 33be
00000050: 98dc 92be cff8 253f bf2d ef3d b500 e53e
00000060: 9bff d73e 4b57 133d f834 9ebe 7ba8 3e3e
00000070: 9ac8 a83f ac2c 043e fc3e 823e 9d9b 1bbf
00000080: 6125 d3be 04dc 963d bdbc 6c3f 2e28 dd3d
00000090: fc70 06bf 38ef e93e a8af 11bf 5256 653f
000000a0: 6df5 0cbd d148 3e3d 8a91 21bf e691 843e
000000b0: 4d25 813f ff93 143e 4829 1cbf 9788 063f
000000c0: 693b d83e aa7c b0bd b6d3 7f3d f06e b23e
000000d0: fa64 17bf ec22 60bf 3720 a0bf abcb 743e
000000e0: 9c1c 223f 5491 f53e 5a64 d83d 9f66 a0bd
000000f0: ddaf 293f 0ac0 1b3f 5735 71bf c54e 193f
00000100: b240 31bf 6fb8 dbbe 17ac 19be 12c3 1c3f
00000110: b03f 343e 945c 243f 1aab 80be 96ab 32bf
00000120: 2c96 a03e 1d8d fcbe fe74 09bf 0caf 1f3f
00000130: a7c2 f5be 6290 1b3f 33fb ff3e 46fe 84be
00000140: a6f1 67be 975b 023f 8a1d 86bf 390d 60be
00000150: e06a 96bb b656 3abf 8ca3 61be 6945 023e
00000160: f753 85be c992 633f 3f93 13be 0df4 bf3e
00000170: 4a8c b2be aaa5 253e 34ed cb3e c626 4e3e
00000180: a8c1 c03e b9ad 09bf 7611 5fbe 337b a23e
00000190: 161b 24be 0c64 5c3d 8b82 e83d 066d a33e
000001a0: ce11 adbf 1643 7f3e 106a f7be 678d ff3e
000001b0: e0cc 9e3e fd8c 163f fe77 523e 2b5a 17bf
000001c0: 7c12 7d3e 12a4 a2bd 9e13 b23c f87d 3b3f
000001d0: d2bb 553d a7b0 273f e4c7 b0bd 31eb d93b
000001e0: 3a41 32bd a0a2 a93e 71d2 193e dbde e03e
000001f0: ebb5 a4bb 0fc8 f13e bfe7 983f 33f3 4b3f
00000200: 285a ab3c 3844 2fbe 73d5 4ebf be1a 2cbe
00000210: 9a70 88bf 0d07 33bf 0722 9dbe 4c7b da3e
00000220: 9372 9abd 4f8a c33e 1ebe 693e d150 d0be
00000230: 602c b6be 5403 633d 01c7 89bb 0c39 a4be
00000240: 7f88 4fbe 6ab6 16bf 64d1 cbbe 2704 e1bd
00000250: 4dbe 4cbf 1e29 4fbf b167 07bf 66af 20be
00000260: dccd 223d 9906 83be bae1 b0bd 0abe 4abf
00000270: 43f5 72bf b7a8 8fbd 2247 33be 6da1 0f3e
00000280: 7b4f 12be cce0 963d 38fa 59bf 0609 9bbf
00000290: bc29 a7bc 3e69 273e b5c6 ca3e fc92 0cbf
000002a0: f3dc 07be 8525 09be 63b2 813d 51b4 1fbd
000002b0: 5d2c 7fbf ccd6 b4be 089e 4dbf f0c5 81bf
000002c0: a27f 15bf 8c60 b9be 63f3 01bf 6636 a23e
000002d0: c053 b53c 1928 5abf b4a7 7e3e bfde a0bd
000002e0: 9dc0 8abf 9cc5 4fbe 80fd 02bd c852 623c
000002f0: 006b 76be e0f2 413e 6e53 c83c 2106 2cbf
00000300: 0a10 b6bd 43d5 60bd 930a 02bd d5ae 17bf
00000310: 1783 43be 1f85 55be 47c0 d3be 58e7 0d3d
00000320: e402 a1bd b999 ef3d 25b9 5b3d 7328 2ebf
00000330: 56eb 003e 669e 8abe 3f81 31bf b762 85bc
00000340: bb9c 2ebe 58d8 debe 2134 3fbf 6330 12be
00000350: 8a86 61bc cdb8 08be 880c 88be a9aa 6abe
00000360: a949 7fbe 108d 2ebf e87e 2cbe b5f2 37be
00000370: 8680 47be 1079 bebe d907 dbbe 161d 4fbd
00000380: 2974 0ebe cb44 963e d194 02bd 4e35 2abe
00000390: f849 a1bd 4eef 3ebe 581d a2be 962e 10be
000003a0: bd1b 113f 8550 2cbe 71f9 d33d d26a e9be
000003b0: 39b3 23be 17d2 14bf 1e52 efbd 8be6 523e
000003c0: 1c35 0abe a705 d5bd da76 70bd a588 30bf
000003d0: 8e9f 63bc b3dd 233e 0f73 adbc 0b6f ccbe
000003e0: 9d3a 17bf 0982 01bd 809d 96bc 5ef5 a0bd
000003f0: 4719 05bc 7db3 19bf d0e7 01be 429a 5abe

bias f4 [3]
-0.0020771427 -0.032461382 0.123487644
00000000: ac20 08bb 3af6 04bd 17e7 fc3d
