02_CE_method/models/acro.pt (torch_old, 14470 bytes, 4 tensors)

weight f4 [128, 6]
0.25351414 0.11541416 0.1326751 0.108121485 -0.2392427 0.21855876 0.35242906 0.61318326
-0.32066134 -0.23269652 0.08355039 0.3792367 -0.264601 -0.68728393 -0.16412526 0.28949708
1.0684326 -0.29420963 0.48652077 0.5392247 0.5956866 0.06521712 -0.38099447 0.26006994
0.025815058 -0.22673953 -0.36578685 0.3680389 0.94569993 -0.2928108 -0.71830326 -0.43612435
-0.3118164 -0.29347283 0.36752063 0.3912731 0.06692352 0.051345706 -0.22589952 -0.42064643
0.00018894579 -0.5557701 0.24342772 -0.8349311 -0.3960944 0.86156315 -0.1637424 0.19355743
-0.051488552 0.2357212 0.3679593 -0.043851867 0.30409566 0.41313756 0.36919218 -0.52484673
0.16711755 -0.06156867 1.2629969 -0.63924307 0.20035489 -0.8610452 0.21084791 -0.107596695
0.79650456 -0.74487615 0.19419345 0.20455974 0.34361103 0.019991728 -0.34514907 -0.4225105
-0.08353315 0.22121309 -0.14914173 -0.6180305 -0.16029055 -0.24776885 0.20978284 -0.036260407
-0.23570105 -0.88198763 0.67746615 -0.45358324 0.34060076 0.10966665 0.095604695 -0.20312603
-0.24492773 0.3889104 0.3378708 -0.13820818 0.4397096 0.09194257 -0.066237606 -0.19311623
-0.19374809 -0.2385274 -0.10254048 0.03977393 -0.21206357 -0.15080206 0.16649765 0.37673214
-0.60526174 -0.21602462 -0.13102204 0.7251593 0.022090789 0.25840217 0.38362837 0.1505906
-0.3741716 -0.550103 0.0593159 0.2356837 -0.14224657 -0.18900858 -0.011194085 0.140992
-0.28311306 0.25683343 -0.2037755 -0.28383824 -0.26780704 0.9072922 -0.06536079 -0.30990574
-0.42028776 0.217204 1.2374616 -0.16429362 0.07730272 0.19185878 0.2611396 0.17768759
-0.367755 -0.33609802 -0.11608447 -0.53820854 0.22930196 0.8580332 0.2921233 0.13726738
-0.051911056 -0.23234856 -0.21902947 -0.6491766 0.56547076 -0.75806284 -0.5222295 -0.4699759
0.1733708 -0.11992446 -0.1422728 -0.19038714 -0.48598 0.29353875 -0.7023996 0.19232361
0.042965904 0.23937555 -0.1753812 0.47017965 0.5222828 -0.18495156 -0.78016835 0.2869463
0.023971891 -0.3685062 -0.2269616 0.37395477 0.12161733 -0.86742926 0.01211384 -0.011152731
0.38454503 0.17766705 0.18438739 -0.087378934 -0.018557288 -0.21562548 0.50894064 0.5463348
0.14581096 0.257318 -0.006889645 -0.43777218 -0.7400774 0.14763385 -0.4629047 0.40709758
-0.102326296 0.68318784 0.24741559 -0.2412146 0.17673488 0.022704577 0.2628879 -0.4496506
0.021749545 -0.22024857 -0.06010323 0.24898782 -0.5679911 0.56921333 0.038889807 -0.65751165
0.06457546 -0.72011846 -0.73463494 0.14956164 -0.54623234 0.08565617 0.96042734 0.14542463
0.5319539 0.11169747 0.44035605 -0.696281 0.44242793 -0.013414416 0.3769418 -0.19314261
-0.25097236 -1.0047972 0.79536587 -0.54926634 -0.29951036 -0.57687414 -0.13476087 0.8797128
-0.17848597 0.069591306 -0.047735408 -0.10692055 -0.5832938 0.35566768 0.6186033 -0.42067516
0.28225717 0.19945 -0.1178716 0.12520924 0.27430016 -0.13124356 0.06406059 0.102426335
0.32113057 0.56221926 0.5053518 -0.14550535 -0.31041157 -0.21331634 -0.13444601 -0.16500743
00000000: 9bcc 813e 425e ec3d fbdb 073e cc6e dd3d
00000010: 0afc 74be decd 5f3e 9571 b43e 94f9 1c3f
00000020: b92d a4be ff47 6ebe 781c ab3d 502b c23e
00000030: c879 87be d7f1 2fbf 7410 28be f638 943e
00000040: 66c2 883f a5a2 96be 4019 f93e a10a 0a3f
00000050: eb7e 183f 8e90 853d b511 c3be e327 853e
00000060: 1a7a d33c 682e 68be 6a48 bbbe 986f bc3e
00000070: 6419 723f 4ceb 95be b9e2 37bf b14b dfbe
00000080: 66a6 9fbe 1242 96be aa2b bc3e f354 c83e
00000090: 330f 893d e04f 523d 3452 67be f85e d7be
000000a0: c01f 4639 f346 0ebf 1e45 793e 0bbe 55bf
000000b0: e3cc cabe 678f 5c3f 16ac 27be eb33 463e
000000c0: a9e5 52bd e660 713e 2965 bc3e 049e 33bd
000000d0: 6db2 9b3e c486 d33e c206 bd3e 5b5c 06bf
000000e0: dd20 2b3e 6e2f 7cbd e2a9 a13f 6fa5 23bf
000000f0: d529 4d3e 756d 5cbf 84e8 573e a85b dcbd
00000100: b9e7 4b3f 34b0 3ebf a6da 463e 1c78 513e
00000110: c9ed af3e b1c5 a33c 61b7 b0be 4c53 d8be
00000120: 6e13 abbd af85 623e 9cb8 18be 3f37 1ebf
00000130: 3523 24be 1eb7 7dbe 50d1 563e cb85 14bd
00000140: 9e5b 71be f1c9 61bf 6c6e 2d3f 103c e8be
00000150: 3963 ae3e e998 e03d 65cc c33d 4500 50be
00000160: 56ce 7abe 441f c73e 67fd ac3e 7286 0dbe
00000170: 9e21 e13e 634c bc3d 95a7 87bd 43c0 45be
00000180: e665 46be 8740 74be be00 d2bd fde9 223d
00000190: 3127 59be db6b 1abe 5c7e 2a3e 09e3 c03e
000001a0: 6ff2 1abf 8f35 5dbe a42a 06be 0aa4 393f
000001b0: bef7 b43c 4a4d 843e f06a c43e 6c34 1a3e
000001c0: 6c93 bfbe 8dd3 0cbf 3bf5 723d 1157 713e
000001d0: 16a9 11be 778b 41be 6567 37bc 3560 103e
000001e0: 32f4 90be ac7f 833e 86aa 50be 3f53 91be
000001f0: 011e 89be 4d44 683f e1db 85bd f7ab 9ebe
00000200: f52f d7be ba6a 5e3e 2465 9e3f 963c 28be
00000210: e350 9e3d a176 443e 17b4 853e bcf3 353e
00000220: 624a bcbe 0a15 acbe b2bd edbd 09c8 09bf
00000230: 22ce 6a3e 10a8 5b3f 2f91 953e d28f 0c3e
00000240: b0a0 54bd c8ec 6dbe 4349 60be 7030 26bf
00000250: b1c2 103f 6810 42bf d5b0 05bf aea0 f0be
00000260: 1d88 313e f59a f5bd f6af 11be d9f4 42be
00000270: 5fd2 f8be b64a 963e 76d0 33bf 7bf0 443e
00000280: 04fd 2f3d dd1e 753e 2197 33be 63bb f03e
00000290: 53b4 053f f163 3dbe 1db9 47bf a0ea 923e
000002a0: b360 c43c d8ac bcbe 9f68 68be 0077 bf3e
000002b0: 8212 f93d d80f 5ebf 2179 463c f2b9 36bc
000002c0: 16e3 c43e 5aee 353e 0cd0 3c3e baf3 b2bd
000002d0: 7405 98bc edcc 5cbe ef49 023f 99dc 0b3f
000002e0: 784f 153e 2fbf 833e 88c2 e1bb ad23 e0be
000002f0: b675 3dbf 542d 173e d801 edbe 186f d03e
00000300: 7390 d1bd 66e5 2e3f 835a 7d3e f600 77be
00000310: fdf9 343e f3fe b93c 3e99 863e 9a38 e6be
00000320: 1a2c b23c d788 61be ce2e 76bd aaf6 7e3e
00000330: dd67 11bf f7b7 113f eb4a 1f3d af52 28bf
00000340: 2440 843d af59 38bf 0911 3cbf b026 193e
00000350: e2d5 0bbf 816c af3d 91de 753f 32ea 143e
00000360: 212e 083f a5c1 e43d 5976 e13e 793f 32bf
00000370: ea85 e23e 24c8 5bbc 84fe c03e 2dc7 45be
00000380: 737f 80be 329d 80bf 199d 4b3f b89c 0cbf
00000390: 6c59 99be 06ae 13bf c1fe 09be dc34 613f
000003a0: 07c5 36be e385 8e3d 3486 43bd 29f9 dabd
000003b0: be52 15bf 131a b63e c95c 1e3f bc62 d7be
000003c0: 0384 903e 9f3c 4c3e aa66 f1bd da36 003e
000003d0: 1271 8c3e b664 06be 3332 833d e6c4 d13d
000003e0: 3a6b a43e 9aed 0f3f bc5e 013f 5bff 14be
000003f0: 44ee 9ebe 996f 5abe 37ac 09be b5f7 28be

bias f4 [128]
0.37046486 0.20730276 -0.14849202 -0.0770185 -0.19959205 -0.27311844 -0.056423977 -0.19723
0.030375235 -0.41921332 -0.25959414 0.15685648 0.076923154 0.052174486 0.23232158 -0.39326677
-0.55081594 -0.35949498 0.30725703 0.29360136 -0.2628307 -0.15695661 0.04504915 0.26536024
0.30627066 -0.24765831 -0.4136235 0.18377742 -0.303551 0.38103434 -0.10925168 0.24036478
0.06739619 0.31253922 -0.3829853 -0.12956646 -0.35495493 -0.0678771 0.21060653 0.23417817
0.11726619 -0.026319403 0.22733064 -0.018979805 -0.37476596 0.053261332 -0.31682593 -0.40727225
-0.082857974 0.284857 0.25516135 -0.031831067 0.4095236 -0.283388 -0.51191115 -0.35112703
-0.3973465 -0.068377025 -0.112428516 0.1703701 -0.0026119575 -0.14681204 -0.29746577 -0.26507127
-0.23714691 -0.37918386 0.34204197 0.044084072 0.20515756 -0.111609444 -0.069946766 -0.16811068
0.04033721 0.23648994 0.39633876 -0.10016781 0.23775685 -0.14504442 -0.075824365 -0.006581783
-0.07190891 0.27314183 -0.42015836 0.26991543 0.22020116 -0.36017293 -0.49120024 0.46487844
0.09237694 -0.5006665 0.52031034 -0.19173934 0.1453928 -0.034456138 -0.1524975 0.06061252
0.07299283 -0.19056815 0.12867098 0.05786798 0.3707576 -0.40343118 0.39859807 0.19396861
-0.40796712 0.28206095 0.50152093 -0.36548683 0.1385611 -0.13929214 -0.23315546 0.06625439
0.0874155 0.24681874 -0.3953302 -0.14897981 0.032045808 -0.021138351 0.36360395 0.3794091
-0.26605314 0.23440842 -0.3608943 0.08871053 -0.021774726 0.0018392457 -0.31862947 -0.50398374
00000000: 92ad bd3e 2d47 543e 4b0e 18be e0bb 9dbd
00000010: dc61 4cbe 2ed6 8bbe d41c 67bd a9f6 49be
00000020: 7cd5 f83c 21a3 d6be 86e9 84be fc9e 203e
00000030: e389 9d3d eab4 553d b5e5 6d3e 435a c9be
00000040: 4602 0dbf ba0f b8be cb50 9d3e eb52 963e
00000050: bf91 86be 3cb9 20be 7585 383d 4cdd 873e
00000060: 82cf 9c3e 249a 7dbe 76c6 d3be 2630 3c3e
00000070: 096b 9bbe ef16 c33e 58bf dfbd 2f22 763e
00000080: 0307 8a3d 2405 a03e a616 c4be 12ad 04be
00000090: a7bc b5be 2603 8bbd 3da9 573e 67cc 6f3e
000000a0: 4229 f03d ca9b d7bc 5dc9 683e 897b 9bbc
000000b0: 53e1 bfbe 8e28 5a3d 0237 a2be fd85 d0be
000000c0: 71b1 a9bd c7d8 913e 82a4 823e 4b61 02bd
000000d0: 14ad d13e 3b18 91be 9c0c 03bf ecc6 b3be
000000e0: 0071 cbbe 4109 8cbd ec40 e6bd 8075 2e3e
000000f0: 602d 2bbb e555 16be 6f4d 98be 6cb7 87be
00000100: a4d6 72be 6324 c2be 2020 af3e 8091 343d
00000110: d314 523e 7e93 e4bd 4040 8fbd 3525 2cbe
00000120: a138 253d 6b2a 723e eaec ca3e c824 cdbd
00000130: 8876 733e 8686 14be ce49 9bbd ffab d7bb
00000140: fb44 93bd 3fd9 8b3e ff1e d7be 5b32 8a3e
00000150: 6a7c 613e 9668 b8be 997e fbbe 8c04 ee3e
00000160: 1f30 bd3d ae2b 00bf 0f33 053f 5157 44be
00000170: dae1 143e e121 0dbd 4e28 1cbe d544 783d
00000180: 447d 953d 4c24 43be 53c2 033e fa06 6d3d
00000190: f1d3 bd3e 888e cebe 0c15 cc3e b59f 463e
000001a0: 11e1 d0be 4b6a 903e ad63 003f 1721 bbbe
000001b0: f6e2 0d3e 99a2 0ebe 4ec0 6ebe 62b0 873d
000001c0: e606 b33d 0dbe 7c3e b868 cabe 2a8e 18be
000001d0: 7742 033d 562a adbc 4c2a ba3e e941 c23e
000001e0: 1e38 88be c308 703e 23c7 b8be dead b53d
000001f0: e960 b2bc d812 f13a 6723 a3be 1405 01bf

weight f4 [3, 128]
-0.09403188 -0.108288 0.6779988 -0.07635847 0.58278817 -0.021870716 0.020637207 -0.44898024
-0.20044804 0.26062927 0.4902274 0.10759783 0.045562353 0.26786155 -0.10820651 0.1943961
-0.23537277 -0.19109556 0.13265143 -0.13696688 -0.009411839 0.3855316 0.07798596 0.33263242
0.19995669 -0.021851601 -0.26308846 0.18924814 0.84701097 0.13259324 0.14918244 -0.5138932
-0.19710244 0.02210468 0.7676772 0.17509526 -0.38082212 0.22937353 -0.47774762 0.5153114
0.011238032 0.092569634 -0.32512295 0.14972672 0.6703168 0.096810155 -0.35465094 0.43221194
0.30572885 0.02495115 0.052959826 0.12721124 -0.48890176 -0.82752335 -1.004509 0.18928242
0.42169 0.3836654 0.105101794 -0.06058024 0.2706017 0.17266855 -0.68111324 0.40747824
-0.47286943 -0.25134018 -0.15684056 0.44091824 0.1503468 0.44118285 -0.31195787 -0.44846594
0.09101564 -0.36086974 -0.40339175 0.3294662 -0.37091568 0.50443697 0.3431236 -0.12929459
-0.14941682 0.38090688 -0.67066526 -0.15958154 -0.0039943564 -0.5318979 -0.17803186 0.13270819
-0.077492625 0.70629305 -0.1490988 0.29689547 -0.19416629 0.11279506 0.24083321 0.07673633
0.25200605 -0.3585677 -0.1501448 0.30245474 -0.1127361 0.0045033284 0.13117264 0.27404174
-1.095751 0.13162076 -0.3500664 0.30085868 0.19314021 0.39175776 0.23959942 -0.40685958
0.233167 -0.06522068 0.02173787 0.5478138 0.040343095 0.27358672 -0.10134101 0.03035518
-0.10837964 0.20829087 0.10688235 0.18770398 -0.017763814 0.36333206 0.39167985 0.36828366
0.10710482 -0.050320745 -0.71353006 -0.0637834 -0.94190997 -0.6170768 -0.18077977 0.49218443
-0.001245002 0.41890967 0.2791555 -0.2807387 -0.19648182 0.15774944 0.09447956 -0.21418634
-0.14534453 -0.46373972 -0.27535835 0.006131308 -0.6941391 -0.7048592 -0.39469802 -0.0920591
0.13459405 -0.19033933 0.21068773 -0.6300692 -0.77170974 0.008224623 -0.11260346 0.21387362
-0.030738227 0.15918732 -0.6461968 -1.0668175 0.088402964 0.26198146 0.46098906 -0.4460418
-0.065743074 -0.106044576 0.14351432 0.022616472 -0.88871074 -0.21768884 -0.6975488 -0.8276608
-0.36651835 -0.25944796 -0.36788315 0.42611685 0.097579956 -0.7414955 0.36274394 -0.020092707
-0.9041308 -0.14124314 0.044860978 0.12029158 -0.21541388 0.2177489 0.17435947 -0.5011257
0.04621866 0.04748803 0.049671967 -0.4179386 -0.087248154 -0.13925393 -0.27064615 0.17335704
0.022081712 0.1868829 0.123501875 -0.5846421 0.19513546 -0.20745584 -0.483153 0.055085808
-0.057736337 -0.30761993 -0.6540616 -0.05976666 0.06271588 0.01395762 -0.21143173 -0.14727777
-0.061261367 -0.47690126 -0.0527212 -0.03572337 -0.051761862 -0.26316017 -0.19601656 0.015045139
-0.0743323 0.44114494 0.053287346 -0.11710771 0.030249665 -0.02348561 -0.2371093 -0.08605637
0.68452424 -0.10376005 0.17241356 -0.20504119 -0.094627395 -0.4063962 -0.031379513 0.27817345
-0.08216244 -0.009280913 -0.058707096 -0.5295656 0.0673308 0.18856679 0.0667691 -0.27082956
-0.50722253 0.03463146 0.039773114 -0.009889988 0.08046761 -0.41292608 -0.103209026 -0.017864784
00000000: c993 c0bd 19c6 ddbd 5491 2d3f d461 9cbd
00000010: 9b31 153f 372a b3bc 5c0f a93c bde0 e5be
00000020: 4042 4dbe 3371 853e 16ff fa3e 405c dc3d
00000030: 979f 3a3d 2625 893e 609b ddbd c50f 473e
00000040: 8f05 71be 8eae 43be c7d5 073e 0c41 0cbe
00000050: 1d34 1abc 6664 c53e 1ab7 9f3d cc4e aa3e
00000060: 72c1 4c3e 2102 b3bc 88b3 86be 44ca 413e
00000070: b6d5 583f 86c6 073e 48c3 183e 818e 03bf
00000080: 39d5 49be e014 b53c 7e86 443f 2c4c 333e
00000090: 1efb c2be e5e0 6a3e 569b f4be 73eb 033f
000000a0: b91f 383c 2695 bd3d 8476 a6be f651 193e
000000b0: e299 2b3f 6744 c63d cf94 b5be e24a dd3e
000000c0: 7e88 9c3e 5b66 cc3c 67ec 583d aa43 023e
000000d0: 5551 fabe 92d8 53bf c093 80bf 40d3 413e
000000e0: c0e7 d73e cb6f c43e 9c3f d73d fc22 78bd
000000f0: 4e8c 8a3e 06d0 303e 705d 2ebf fda0 d03e
00000100: f11b f2be a9af 80be d09a 20be 09c0 e13e
00000110: 83f4 193e b8e2 e13e f1b8 9fbe 549d e5be
00000120: 6866 ba3d ebc3 b8be 5d89 cebe cbaf a83e
00000130: a9e8 bdbe c822 013f e6ad af3e cd65 04be
00000140: b900 19be 3a06 c33e b8b0 2bbf 5869 23be
00000150: 17e3 82bb 762a 08bf fc4d 36be a8e4 073e
00000160: 74b4 9ebd 9fcf 343f 5bad 18be af02 983e
00000170: 87d3 46be 1901 e73d fb9c 763e f027 9d3d
00000180: f006 813e 3096 b7be 8fbf 19be 59db 9a3e
00000190: 2fe2 e6bd a890 933b 1f52 063e 334f 8c3e
000001a0: 9241 8cbf 98c7 063e e73b b3be 260a 9a3e
000001b0: 8cc6 453e 7994 c83e 8d59 753e e64f d0be
000001c0: 54c3 6e3e 6b92 85bd 9e13 b23c 863d 0c3f
000001d0: cd3e 253d 8f13 8c3e e08b cfbd 6dab f83c
000001e0: 25f6 ddbd 344a 553e 22e5 da3d 7935 403e
000001f0: 6b85 91bc a906 ba3e 438a c83e ad8f bc3e
00000200: c659 db3d 201d 4ebd e8a9 36bf dfa0 82bd
00000210: 0321 71bf bff8 1dbf 551e 39be 99ff fb3e
00000220: 562f a3ba 547b d63e 78ed 8e3e fcbc 8fbe
00000230: 8832 49be 1289 213e 807e c13d aa53 5bbe
00000240: 32d5 14be 4b6f edbe c5fb 8cbe 24e9 c83b
00000250: 1ab3 31bf a771 34bf dc15 cabe 7b89 bcbd
00000260: 06d3 093e 50e8 42be 86be 573e 374c 21bf
00000270: c58e 45bf 92c0 063c a59c e6bd b001 5b3e
00000280: bcce fbbc 0002 233e 276d 25bf 7a8d 88bf
00000290: 9d0c b53d 6f22 863e c206 ec3e 975f e4be
000002a0: 4ea4 86bd e62d d9bd 6bf5 123e 2e46 b93c
000002b0: 8c82 63bf d3e9 5ebe 8f92 32bf 94e1 53bf
000002c0: 4ba8 bbbe 5dd6 84be 2e5b bcbe fd2b da3e
000002d0: 00d8 c73d a6d2 3dbf 93b9 b93e 7699 a4bc
000002e0: 1e75 67bf 0ba2 10be 25c0 373d 6f5b f63d
000002f0: 7595 5cbe 91f9 5e3e 4a8b 323e c649 00bf
00000300: c74f 3d3d cf82 423d d574 4b3d 0cfc d5be
00000310: 29af b2bd 9598 0ebe 2292 8abe 8284 313e
00000320: b5e4 b43c 3b5e 3f3e 8dee fc3d 1bab 15bf
00000330: 97d1 473e 4e6f 54be d45f f7be a8a1 613d
00000340: f07c 6cbd 5c80 9dbe 9570 27bf e3cd 74bd
00000350: 2f71 803d 80ae 643c 8f81 58be fccf 16be
00000360: 33ed 7abd 672c f4be 2ff2 57bd ab52 12bd
00000370: 3f04 54bd eebc 86be 91b8 48be e37f 763c
00000380: 883b 98bd c0dd e13e d543 5a3d 2bd6 efbd
00000390: 25ce f73c e564 c0bc c8cc 72be 523e b0bd
000003a0: fb3c 2f3f 2680 d4bd 2e8d 303e 51f6 51be
000003b0: 02cc c1bd 2a13 d0be ce87 00bd c06c 8e3e
000003c0: c844 a8bd f80e 18bc da76 70bd 9c91 07bf
000003d0: bbe4 893d a717 413e 3dbe 883d 2caa 8abe
000003e0: 56d9 01bf b8d9 0d3d 22e9 223d 9e09 22bc
000003f0: 34cc a43d 0c6b d3be 415f d3bd 2b59 92bc

bias f4 [3]
-0.016755711 0.0559056 0.073122345
00000000: 4643 89bc 45fd 643d 2bc1 953d
