02_CE_method/models/CE_model_fcNN_Acrobot-v1.pt (torch_old, 14470 bytes, 4 tensors)

weight f4 [128, 6]
0	0x3e9424d5	0.2893435
1	0xbc0128e0	-0.0078832805
2	0x3e1b7169	0.15179981
3	0x3e11293a	0.14175883
4	0xbe95fb40	-0.2929325
5	0x3e8ad513	0.27115688
6	0x3ec82d50	0.3909707
7	0x3f100d65	0.5627044
8	0xbeaf1667	-0.3419678
9	0xbe6b0f02	-0.22954944
10	0x3e278bea	0.16361967
11	0x3ec8df45	0.3923284
12	0xbdc7b9c0	-0.09752226
13	0xbecd7791	-0.40130284
14	0x3d26ce29	0.040723953
15	0x3df06940	0.11738825
16	0x3f144cc6	0.57929647
17	0xbeb66e3b	-0.35630974
18	0x3eeb5b90	0.45968294
19	0x3f063286	0.5242084
20	0x3f1eaf53	0.61986274
21	0xbdb6c53d	-0.08924339
22	0xbeb48171	-0.35255006
23	0x3e8c6425	0.27420154
24	0xbbea9c60	-0.0071597546
25	0xbda900a7	-0.082520775
26	0xbdb23a11	-0.087024815
27	0x3e9f9247	0.31166288
28	0x3e47df3d	0.19518752
29	0xbe8b4cc4	-0.27207005
30	0xbea1a4c3	-0.31571016
31	0xbe97d94f	-0.2965798
32	0x3e5a0919	0.21292533
33	0xbe07adf4	-0.13249952
34	0x3d276063	0.040863406
35	0x3e4861db	0.19568579
36	0x3dbbf493	0.09177508
37	0xbdf03507	-0.11728864
38	0xbe86f168	-0.26356053
39	0xbe6e48c6	-0.23269948
40	0xbebfbbf0	-0.37448072
41	0xbe449f5d	-0.19201417
42	0x3e477435	0.19477923
43	0xbf1cf0c4	-0.6130488
44	0xbe85d59a	-0.26139528
45	0x3f138e64	0.57639146
46	0xbe5c9e55	-0.21544774
47	0x3e11addd	0.1422648
48	0xbcf91f5d	-0.030410463
49	0x3e8635d0	0.2621293
50	0x3ed94cae	0.42441314
51	0xbe16f543	-0.14741997
52	0x3e413285	0.18866928
53	0x3eb8dfc3	0.36108217
54	0x3e8ef98f	0.27924773
55	0xbd88475f	-0.06654238
56	0x3d42e548	0.04758194
57	0x3e968e51	0.29405454
58	0x3f411689	0.7542501
59	0xbee4f90b	-0.44721255
60	0x3dea9a11	0.11455167
61	0xbec1f120	-0.37879276
62	0x3df456e3	0.11930635
63	0x3e90cf75	0.28283277
64	0x3dab8661	0.0837524
65	0xbeff8391	-0.49905065
66	0x3e47a2fc	0.19495767
67	0x3e413100	0.18866348
68	0x3e9cd960	0.30634594
69	0x3e2c7983	0.16843228
70	0xbdbad9ab	-0.09123548
71	0xbefb6f5c	-0.49108398
72	0xbe10a403	-0.14125066
73	0x3e34db87	0.17661868
74	0xbe74c071	-0.23901536
75	0xbee199bf	-0.4406261
76	0xbeb94762	-0.36187273
77	0x3d87cd52	0.066309586
78	0x3e444b21	0.19169284
79	0x3d0f7b8e	0.03502994
80	0xbe275bc5	-0.16343601
81	0xbeef05f4	-0.4668423
82	0x3f2908e9	0.6602922
83	0xbeefccc9	-0.46835926
84	0x3ebd556b	0.3697923
85	0x3c03f12d	0.008053106
86	0x3de55329	0.11197502
87	0xbe349d8e	-0.17638227
88	0xbea5eebe	-0.32408708
89	0x3ee1e6e6	0.44121474
90	0x3ea97f38	0.33104873
91	0xbe489c47	-0.19590865
92	0x3ea0100b	0.3126224
93	0x3e801e94	0.2502333
94	0x3ead568c	0.33855093
95	0xbd321ab0	-0.043482482
96	0xbe159f33	-0.14611511
97	0xbe8fa57f	-0.2805595
98	0xbe31a9bb	-0.17349903
99	0x3dd53d6a	0.104121044
100	0xbe19e88b	-0.15030114
101	0xbe1ee7c0	-0.15518093
102	0x3ecc6535	0.39920965
103	0x3f1a0f59	0.6017967
104	0xbedf1fd9	-0.43578985
105	0xbe9cd135	-0.30628362
106	0xbdc9af25	-0.09847859
107	0x3f08e04f	0.5346727
108	0x3cc4d428	0.024026945
109	0x3e831635	0.2560288
110	0x3eb8717d	0.36024085
111	0x3eae659a	0.3406189
112	0xbe284b4e	-0.16434976
113	0xbf21b35d	-0.6316431
114	0x3dc24541	0.094858654
115	0x3dd0a115	0.10186974
116	0xbe2de009	-0.16979994
117	0xbe1e4533	-0.15456085
118	0xbb938d31	-0.0045029153
119	0x3e50473c	0.20339674
120	0xbd946049	-0.072449274
121	0x3f0f85ae	0.56063354
122	0xbe27281b	-0.16323893
123	0xbeffa5d1	-0.49931195
124	0xbeae4d86	-0.3404352
125	0x3f092d3b	0.5358464
126	0xbd8c132a	-0.06839593
127	0xbddda173	-0.108218096
128	0xbdb0b785	-0.086287536
129	0x3e1c5bdb	0.15269415
130	0x3ec6f062	0.38855273
131	0xbe1beb9d	-0.15226598
132	0x3dd11bef	0.10210406
133	0x3da8bbff	0.082389824
134	0x3e630a87	0.22171985
135	0x3ea1bc46	0.31588954
136	0xbdd2c9c8	-0.10292393
137	0xbe3bbd7e	-0.18334004
138	0xbe4c90f0	-0.19977164
139	0xbed785f2	-0.4209438
140	0x3e101c41	0.14073278
141	0x3f570b93	0.84002036
142	0x3f062b8f	0.52410215
143	0xbc41fbf4	-0.011839855
144	0xbd8f52fc	-0.0699825
145	0xbd644771	-0.055732194
146	0xbdcf697b	-0.10127541
147	0xbed2c403	-0.4116517
148	0x3f027bf1	0.5097037
149	0xbf471f17	-0.77781814
150	0xbf0200b4	-0.5078232
151	0xbed6bdd4	-0.41941702
152	0x3df75b21	0.12077928
153	0xbd4ca5d4	-0.049962834
154	0xbe33abbc	-0.1754598
155	0xbe7b10c2	-0.24518111
156	0xbefb1c9b	-0.49045262
157	0x3ee13d4e	0.43992084
158	0xbf336810	-0.7008066
159	0xbcdbf31a	-0.026849318
160	0x3bfb865d	0.0076759295
161	0xbd54bb95	-0.051936705
162	0xbe75957c	-0.23982805
163	0x3f0bc914	0.54603696
164	0x3eafb034	0.3431412
165	0xbe82ffdb	-0.25585827
166	0xbebe84ed	-0.3721079
167	0x3e7ada46	0.24497327
168	0xbe71e0aa	-0.23620859
169	0xbe667750	-0.22506452
170	0xbe4b6283	-0.19861798
171	0x3ebc7ad3	0.36812457
172	0x3e19afd5	0.15008481
173	0xbee6003e	-0.4492206
174	0x3cb14779	0.021640526
175	0x3e003b64	0.12522656
176	0x3ee58421	0.4482737
177	0x3e3d914c	0.18512458
178	0x3e6f4479	0.23365964
179	0xbe41fafc	-0.18943399
180	0x3d142d68	0.036176115
181	0xbd406980	-0.046975613
182	0x3f053977	0.5204081
183	0x3efbe69c	0.49199378
184	0x3ecbe4a0	0.39822865
185	0x3d14bac7	0.036310937
186	0x3ce32429	0.027727203
187	0xbea006a6	-0.31255072
188	0xbf142165	-0.57863456
189	0x3cd609ca	0.026127715
190	0xbeadd913	-0.33954677
191	0x3eb140e4	0.3461982
192	0xbd01b1e3	-0.031663787
193	0x3e40a6d3	0.18813638
194	0x3e942517	0.28934547
195	0xbc9b8b4b	-0.018987319
196	0x3e4d7dab	0.2006747
197	0x3e7b056b	0.24513786
198	0x3e660552	0.22462967
199	0xbefca5d0	-0.49345255
200	0x3d7dc9b8	0.061959952
201	0xbe911334	-0.28334963
202	0xbd15d3cf	-0.03657895
203	0x3e8b15a7	0.27164957
204	0xbeb4f836	-0.3534562
205	0x3ef209a3	0.47272977
206	0x3eac7c31	0.336885
207	0xbf1272b1	-0.57206255
208	0xbe652ca1	-0.22380306
209	0xbeb52f81	-0.35387805
210	0xbe720ae3	-0.23636965
211	0x3ea1383c	0.31488216
212	0x3db4244d	0.08795986
213	0x3e7a2924	0.24429756
214	0x3e2a227c	0.16614717
215	0x3dd2d413	0.10294356
216	0x3f1776ca	0.5916563
217	0xbe43e049	-0.19128527
218	0x3ef90b29	0.48641327
219	0xbf0d0561	-0.5508633
220	0xbcf02197	-0.029312892
221	0x3e6ac5a8	0.22926962
222	0x3e81aeac	0.25328577
223	0xbdf2ac33	-0.11849251
224	0xbea6b28f	-0.32558104
225	0xbf24441f	-0.64166445
226	0x3f3cbc26	0.7372459
227	0xbf2622c6	-0.6489681
228	0xbec64f02	-0.38732153
229	0xbeb4e15d	-0.3532819
230	0x3cc7ba88	0.024380937
231	0x3f092384	0.5356982
232	0xbe7244e7	-0.23659097
233	0x3a653e44	0.0008744935
234	0xbd6d7600	-0.05797386
235	0xbdcc0722	-0.09962298
236	0xbe4bff06	-0.19921502
237	0x3e0f9d67	0.14024888
238	0x3eea85bc	0.45805156
239	0xbeb0f853	-0.34564456
240	0x3ea68948	0.32526612
241	0x3e5b4912	0.21414593
242	0xbd7cb150	-0.061692536
243	0x3e1d8461	0.1538253
244	0x3ea143f7	0.31497166
245	0xbd8abb69	-0.06774027
246	0x3df6152a	0.120157555
247	0x3e62653c	0.2210893
248	0x3eb4ef78	0.3533895
249	0x3f199592	0.5999385
250	0x3f14838c	0.58013225
251	0xbddaaae8	-0.10677129
252	0xbea92b9a	-0.33041078
253	0xbdc2bda6	-0.09508829
254	0xbe7ae6ea	-0.24502149
255	0xbdf71b81	-0.12065793

bias f4 [128]
0	0x3ec27128	0.37976956
1	0x3e3e0963	0.18558268
2	0xbe93eeb7	-0.28893062
3	0xbe6fa3d4	-0.23402339
4	0xbea72074	-0.32641947
5	0xbebf7645	-0.3739492
6	0xbba85590	-0.005137153
7	0xbe902a29	-0.28157166
8	0xbd09a042	-0.0336001
9	0xbe95d7f2	-0.29266316
10	0xbe435b5b	-0.19077818
11	0x3e353e57	0.17699562
12	0x3ca97987	0.020687832
13	0x3d0516da	0.032492496
14	0x3e6c94ef	0.23103689
15	0xbeb5835e	-0.35451788
16	0xbefcd8f1	-0.49384263
17	0xbe8478ee	-0.25873512
18	0x3eabf377	0.33584186
19	0x3e9f55d1	0.3112016
20	0xbdbc32a2	-0.09189345
21	0xbea925a3	-0.33036527
22	0x3da2bc1a	0.07946034
23	0x3e5673bf	0.20942591
24	0x3e7eaeec	0.24871415
25	0xbe4ca626	-0.19985256
26	0xbec76aa9	-0.38948563
27	0x3d827dde	0.063716635
28	0xbee55f1a	-0.4479912
29	0x3eba5427	0.36392328
30	0xbd5005b0	-0.050786674
31	0x3e62481f	0.22097825
32	0x3e091ef4	0.13390714
33	0x3ea8c12d	0.3295988
34	0xbe9d0924	-0.30671036
35	0xbe84ebdc	-0.25961196
36	0xbe987738	-0.29778457
37	0xbdda250b	-0.10651597
38	0x3dd200d5	0.10254065
39	0x3b97ded7	0.004634719
40	0x3da20812	0.079116955
41	0x3c324772	0.010881292
42	0x3e581433	0.21101455
43	0x3b890a9e	0.004182174
44	0xbea48728	-0.32134366
45	0x3d9cc087	0.07653909
46	0xbea4151d	-0.32047358
47	0xbea9039a	-0.3301056
48	0x3d2e0e93	0.042494368
49	0x3e8ee699	0.27910307
50	0x3e78c60d	0.242943
51	0x3d19e644	0.037573114
52	0x3ed67a7b	0.4189032
53	0xbee9e6b2	-0.4568382
54	0xbf06408f	-0.5244226
55	0xbeae3c67	-0.34030458
56	0xbe8979d3	-0.26850757
57	0xbe2df259	-0.1698698
58	0xbe0f4587	-0.13991366
59	0x3e2d375e	0.16915652
60	0xbd813248	-0.063084185
61	0xbcc5ae83	-0.024131065
62	0xbe6561dd	-0.22400613
63	0xbe8eb5b3	-0.27873
64	0xbe4a4066	-0.19751129
65	0xbeaaded0	-0.33373117
66	0x3eb1b69b	0.3470963
67	0xbb2ca7cd	-0.0026345134
68	0x3e4b57a3	0.1985765
69	0xbdefbad9	-0.1170556
70	0xbdbe4e8e	-0.09292327
71	0xbe1d1794	-0.15341026
72	0xbc5ae776	-0.013360849
73	0x3e838d9c	0.25693977
74	0x3ec79721	0.3898249
75	0xbe8daaa9	-0.27669266
76	0x3d9a298c	0.07527456
77	0xbe58ce2c	-0.21172398
78	0x3bbf62e2	0.005840645
79	0xbda4dd75	-0.08050052
80	0x3d89d629	0.06730301
81	0x3e60f98e	0.21970198
82	0xbed5883c	-0.417055
83	0x3e91a357	0.2844493
84	0x3e18ff9e	0.1494126
85	0xbeb5e2e9	-0.3552468
86	0xbef52a73	-0.4788395
87	0x3edbbaa2	0.42915827
88	0x3e1b00da	0.15137044
89	0xbeeb78fc	-0.4599074
90	0x3f0b3cf5	0.5438989
91	0xbcc7179b	-0.024303248
92	0x3e03a830	0.12857127
93	0xbd8d377d	-0.06895349
94	0xbd8bc04d	-0.06823788
95	0x3d98c897	0.074601345
96	0x3c496477	0.012292019
97	0xbe03bc5c	-0.12864822
98	0x3e10c8e9	0.14139141
99	0x3d8ec6e4	0.06971529
100	0x3ec1570c	0.37761724
101	0xbe965fe5	-0.29370037
102	0x3ec0b9e0	0.3764181
103	0x3e2f2b97	0.17106472
104	0xbee1d708	-0.44109368
105	0x3e643e64	0.22289425
106	0x3efb7ebd	0.4912013
107	0xbe9c73e3	-0.30557165
108	0x3da5e1a6	0.0809968
109	0xbe17cbb4	-0.148238
110	0xbec9b0ab	-0.393926
111	0x3d0a9fec	0.03384392
112	0x3d5d7c27	0.05407348
113	0x3e525dbb	0.20543568
114	0xbeaafa07	-0.3339388
115	0xbe2d2e43	-0.16912179
116	0xbe58f19a	-0.21185914
117	0x3e26d1b6	0.16290936
118	0x3ec57875	0.38568464
119	0x3e886333	0.26638183
120	0xbe1efc71	-0.15525986
121	0x3e79aa8f	0.24381469
122	0xbeb28242	-0.34865004
123	0x3e47c450	0.19508481
124	0x3e38087f	0.17971991
125	0x3d97d556	0.074137375
126	0xbe841ce1	-0.25803283
127	0xbef4629c	-0.47731483

weight f4 [3, 128]
0	0xbde0c7b8	-0.10975593
1	0xbe01c019	-0.12670936
2	0x3e860c6f	0.2618136
3	0xbe1bb94e	-0.15207407
4	0x3e1b377e	0.15157887
5	0x3b856591	0.0040709455
6	0xbd143223	-0.036180627
7	0xbe6cf1b9	-0.23139085
8	0xbe428faa	-0.19000116
9	0x3e42e231	0.19031598
10	0x3e67df2c	0.22643727
11	0x3df5fb61	0.12010837
12	0x3c147c20	0.009062797
13	0x3dc732a9	0.097264595
14	0xbe0b9bae	-0.13633606
15	0x3e22fbe6	0.15916404
16	0xbd4fa7d6	-0.05069717
17	0xbdb21f1b	-0.08697339
18	0x3e1b1d01	0.15147783
19	0xbe427b09	-0.18992247
20	0x3d55ba30	0.052179515
21	0x3c7c22b5	0.015389134
22	0x3de83e3c	0.11339995
23	0x3e9bcfac	0.3043188
24	0x3d93aeac	0.072110504
25	0xbda300cb	-0.079591356
26	0xbe877094	-0.26453078
27	0x3d0dfc9a	0.034664728
28	0x3e04d4ff	0.12971877
29	0x3e307455	0.17231877
30	0x3dcb4adf	0.0992639
31	0xbeb30c5b	-0.34970364
32	0xbd592403	-0.05301286
33	0xbd3f7195	-0.04673918
34	0x3f025456	0.50909936
35	0x3c5587b8	0.013032846
36	0xbecf300c	-0.40466344
37	0x3d5d7ca0	0.05407393
38	0xbe5d5074	-0.21612722
39	0x3e12d0f4	0.14337522
40	0x3d73edf0	0.059553087
41	0x3e26141f	0.16218613
42	0xbe192f3b	-0.14959423
43	0x3db11488	0.08646494
44	0x3de426ec	0.11140236
45	0x3d7af105	0.06126501
46	0xbe4dd004	-0.20098883
47	0x3a3a2b1d	0.00071017613
48	0x3e204758	0.15652215
49	0x3d122243	0.035677206
50	0x3cb00809	0.021488206
51	0xbce2ff3e	-0.0277096
52	0xbea46675	-0.3210942
53	0xbdef56f0	-0.11686504
54	0xbefbfd7e	-0.49216837
55	0x3e221784	0.15829283
56	0xb9ef4453	-0.00045636538
57	0x3e9f4700	0.31108856
58	0x3c6225da	0.01380297
59	0xbdc8491f	-0.09779572
60	0x3e414326	0.18873271
61	0xbce9ff3b	-0.028564086
62	0xbe3fd293	-0.18732671
63	0x3d4b2358	0.049594253
64	0xbe1dd3d4	-0.15412837
65	0xbe89f8cb	-0.26947626
66	0xbe39ffb1	-0.18163945
67	0x3e2272de	0.15864131
68	0x3e3d65fa	0.18495932
69	0x3df4a249	0.11945016
70	0xbe1f703a	-0.15570155
71	0xbdcb0152	-0.09912361
72	0xbb35f146	-0.0027762218
73	0xbe6c7e1c	-0.23094982
74	0xbe922e4d	-0.2855095
75	0x3cbb40fd	0.022858137
76	0xbe0c0467	-0.13673554
77	0x3edb61f9	0.42848185
78	0x3d8acd76	0.0677747
79	0xbe03148f	-0.12800811
80	0xbe42f0ae	-0.19037125
81	0x3e06c4d4	0.13161021
82	0x3bb167da	0.0054139914
83	0xbe0b1d2a	-0.13585344
84	0xbd40147c	-0.046894535
85	0xbe5c88a2	-0.21536496
86	0xbd74c9f8	-0.059762925
87	0x3de4a093	0.111634396
88	0xbdec228b	-0.11530026
89	0x3eb217a4	0.3478366
90	0xbe1e36a4	-0.15450531
91	0xbd0d1f71	-0.034453813
92	0xbd332756	-0.043738686
93	0x3dfd6d3b	0.1237435
94	0x3da3c4f9	0.07996554
95	0x3c00a512	0.007851856
96	0x3e4452ed	0.19172259
97	0xbe264a47	-0.16239272
98	0xbe2218ac	-0.15829724
99	0x3e9ddbf7	0.30831882
100	0xbe08ad5b	-0.1334738
101	0x3cd5e1f6	0.026108723
102	0x3e2e041b	0.16993754
103	0x3e82e81a	0.25567704
104	0xbf0f1116	-0.55885446
105	0x3db06bb3	0.08614292
106	0xbe790955	-0.24319966
107	0x3df80c7e	0.12111758
108	0x3debd036	0.115143225
109	0x3df5a53a	0.11994405
110	0x3dc5600e	0.096374616
111	0xbe86ec38	-0.26352096
112	0x3e5b673a	0.21426097
113	0xbda975e1	-0.08274437
114	0xbd1ccc34	-0.03828068
115	0x3e5e15e3	0.21688037
116	0xbcfa78c0	-0.030575156
117	0x3db062e0	0.08612609
118	0xbe108506	-0.14113244
119	0xbd0af9a9	-0.0339295
120	0x3bb0855a	0.0053869905
121	0x3e2797dd	0.16366525
122	0x3de7e1ee	0.113223895
123	0x3c03ef65	0.008052682
124	0xbd81ed27	-0.06344061
125	0x3e1b45be	0.15163323
126	0x3e3e29cf	0.18570636
127	0x3e1674f3	0.1469305
128	0x3d4f4dbb	0.05061124
129	0xbda013b9	-0.07816262
130	0xbe0c63e7	-0.13709985
131	0x3dcb7017	0.09933489
132	0xbe0295fd	-0.12752528
133	0xbdb47aae	-0.08812462
134	0xbd9754d9	-0.0738923
135	0x3e2529a1	0.16129161
136	0xbd67ea85	-0.05662014
137	0xbca87902	-0.020565514
138	0xbcadef2e	-0.021232214
139	0xbd695cc5	-0.056973238
140	0xbe1dcdfa	-0.15410605
141	0x3e16f391	0.1474135
142	0x3d6b61c1	0.057466272
143	0xbe219eaa	-0.15783182
144	0xbda422c9	-0.08014447
145	0xbea428b7	-0.32062313
146	0xbc2c2386	-0.010506516
147	0x3c98fea3	0.018676108
148	0xbec9249d	-0.39285746
149	0xbd05e7c5	-0.032691736
150	0xbdcdab7c	-0.10042474
151	0xbe57e32c	-0.21082753
152	0x3e219789	0.15780462
153	0xbdb38fe6	-0.08767681
154	0x3e2904d5	0.1650575
155	0xbe9da605	-0.30790725
156	0xbdecd5d3	-0.11564221
157	0x39e0fc74	0.00042912702
158	0xbe416841	-0.18887426
159	0x3df9dfb7	0.12200873
160	0xbdd4acee	-0.10384546
161	0x3e19c13f	0.15015124
162	0xbe8191eb	-0.2530664
163	0xbe088130	-0.13330531
164	0x3da71430	0.08158147
165	0x3e893a02	0.2680207
166	0x3ddde8e4	0.10835436
167	0x3d26b457	0.04069933
168	0xbbdd2a1f	-0.006749406
169	0xbe7d5f00	-0.24743271
170	0x3c27191c	0.010198858
171	0xbd3d0460	-0.04614675
172	0xbe1917e2	-0.14950517
173	0xbcb89fea	-0.02253719
174	0xbe950b6a	-0.2911027
175	0xbd02c242	-0.03192354
176	0xbe4a932b	-0.19782703
177	0xbd471a31	-0.048608962
178	0xbd7df6e8	-0.062003046
179	0x3ebabbdf	0.3647146
180	0x3cadb3e8	0.02120395
181	0x3d5491ac	0.051896736
182	0x3bec3d62	0.007209466
183	0xbdb75e08	-0.08953482
184	0xbd830ab4	-0.06398526
185	0xbe2edaff	-0.17075728
186	0x3bf88fe8	0.0075855143
187	0x3daa0f93	0.08303752
188	0xbe485967	-0.19565354
189	0x3d92062f	0.07130086
190	0xbdf8f2c9	-0.121556826
191	0x3d561401	0.05226517
192	0xbe4d752a	-0.20064226
193	0x3d039684	0.032125965
194	0xbab9e278	-0.0014181873
195	0xbc1baa36	-0.009501031
196	0x3d05848b	0.032597106
197	0xbda93d15	-0.082636036
198	0xbca6025b	-0.020264795
199	0xbc6dc108	-0.014511354
200	0x3d5a9299	0.053362463
201	0xba36dd04	-0.0006975683
202	0x3cf4cb8d	0.029882217
203	0xbdacd34e	-0.08438741
204	0x3e222a4d	0.15836449
205	0xbe7fdf7a	-0.24987593
206	0xbe0174bd	-0.12642188
207	0xbcad0637	-0.021121128
208	0x3dc1acfa	0.09456821
209	0x3bda63b4	0.0066647176
210	0xbd1e7f94	-0.038695887
211	0xbe0c285a	-0.13687268
212	0x3de4f331	0.111791976
213	0xbe5140f8	-0.2043494
214	0xba659dec	-0.0008759189
215	0xbcbc7e75	-0.023009518
216	0xbd7b27eb	-0.061317366
217	0xbbc3f581	-0.005980194
218	0xbda65e0f	-0.08123409
219	0x3e7dbb8e	0.24778578
220	0xbe07ab77	-0.13249002
221	0xbc4367a6	-0.011926567
222	0x3ce846aa	0.028354008
223	0x3d205674	0.039144948
224	0xbe17d91d	-0.14828916
225	0x3dc03382	0.09384824
226	0x3cc21477	0.023691399
227	0xbe9d8926	-0.30768698
228	0xbcda0815	-0.026615182
229	0xbde0cfe8	-0.10977155
230	0xbd7e6a1b	-0.06211291
231	0xbe72299a	-0.23648682
232	0x3e9b6c16	0.303559
233	0xbe0a7629	-0.13521637
234	0x3d964fb3	0.0733942
235	0x3d849881	0.064744
236	0xbdee7994	-0.11644283
237	0x3c18e2d4	0.009331424
238	0xbcb33636	-0.021876436
239	0x3db9d40d	0.090736486
240	0xbe6b1925	-0.2295881
241	0x3c402076	0.011726489
242	0x3b3d7d22	0.0028913696
243	0xbcd5cd99	-0.026099013
244	0x3d5a772e	0.053336315
245	0x3d9b6550	0.07587683
246	0xbc8653d8	-0.016397402
247	0xbdeebe0a	-0.11657341
248	0xbd0baaae	-0.03409832
249	0xbcb1dcbb	-0.021711698
250	0xbc882f19	-0.01662402
251	0x3e148c31	0.14506604
252	0xbc92c42c	-0.017915808
253	0xbe2e8282	-0.17041972
254	0xbda3322f	-0.07968556
255	0x3e6cc1be	0.23120782

bias f4 [3]
0	0xbd4371ac	-0.047715828
1	0x3d814713	0.063123845
2	0x3db2d82a	0.08732636
