02_CE_method/models/CE_model_fcNN_CartPole-v0.pt (torch_old, 12930 bytes, 4 tensors)

weight f4 [128, 4]
000000 61 de 9f be 62 2e 01 bf db 25 45 be 46 bd 69 3e
       -0.3122435 -0.504614 -0.19252722 0.22826108
000010 e5 b6 8a be d5 22 f5 3d da 95 7e 3d bc 10 11 3f
       -0.27092662 0.11969534 0.06215463 0.5666616
000020 92 81 9e 3d 69 5a 5f bc ae 13 cc be 95 1e d4 3e
       0.07739557 -0.013632395 -0.39858764 0.41429582
000030 89 b0 13 3f da 37 f7 be d6 92 b2 3d ff ae 3b be
       0.57691246 -0.482848 0.08719413 -0.18328474
000040 fb 3c da be ca bc ad be fa 86 2e 3e 44 d9 b3 3e
       -0.4262465 -0.33933097 0.17043677 0.35126698
000050 8a 36 5d 3e 14 8e de be 90 31 e8 3d c8 48 db be
       0.21602836 -0.43467772 0.11337578 -0.42828965
000060 3c 1f b8 3e 12 7a 18 3e e8 7b 98 be b0 da 7f 3e
       0.3596133 0.14890316 -0.29782033 0.24985766
000070 f6 6b 4c 3e ad 3f 13 3e 42 ef 9f 3c b7 d2 d7 3b
       0.19963059 0.14379759 0.019523267 0.0065863985
000080 a1 3d b8 bd 3b 21 a6 be 6c 3d 03 3f 38 83 90 be
       -0.0899613 -0.32447228 0.512656 -0.28225112
000090 3a 0b 81 be 99 fa b5 3e 34 49 c9 3e 89 2b 5c be
       -0.25203878 0.35542753 0.39313662 -0.21500982
0000a0 30 c6 47 3b 5c a7 9d be 2d 00 d8 be 6b 43 69 be
       0.003048312 -0.30791748 -0.42187634 -0.22779624
0000b0 99 6a bf be 53 fb ce 3d 4f 29 0e 3f f5 84 74 3e
       -0.37386015 0.1010653 0.5553178 0.23878844
0000c0 82 ea cb 3e 48 b0 75 3e ea dd 79 3e 76 3c da bd
       0.39827353 0.23993027 0.2440106 -0.10656063
0000d0 d5 8d 3d be 9b 2e 5f 3e 6e fe 93 3c 76 95 ea 3d
       -0.18511136 0.21795122 0.018065657 0.11454289
0000e0 0e 7d cf be ab aa cc 3d cd 97 51 3f e9 08 1e 3f
       -0.40525097 0.0999349 0.81872255 0.61732346
0000f0 50 72 8e be 25 19 b5 bc 4b 43 34 bd c4 59 a7 be
       -0.2782159 -0.022106716 -0.044009488 -0.32685673
000100 7c a5 ab bd d8 ea 89 be 1c 27 b0 3e c1 15 c1 3e
       -0.08381173 -0.26936984 0.34404838 0.3771191
000110 b7 ea bd 3e dc fd 67 be 23 4c 0e be 6e 8f fa 3d
       0.37093136 -0.22655433 -0.13896231 0.12234388
000120 2d 60 d7 3e 2f 8f 0e 3e 5e 42 d3 3e 13 59 62 be
       0.42065564 0.13921808 0.41261572 -0.22104292
000130 03 1f 1d 3d 1b 2e 99 3c 19 3e 25 3f 7c 0d f8 3d
       0.038359653 0.018698743 0.6454788 0.12111947
000140 49 39 3f be 51 e6 2a 3e 7a 08 55 bf 46 66 9c be
       -0.18674196 0.16689421 -0.8321606 -0.30546778
000150 9a 56 88 be 74 11 35 be af 10 40 bd 6c 09 f0 be
       -0.26628572 -0.17682439 -0.04689091 -0.46882188
000160 13 ec 21 3e 7a b3 c1 3d 1b 31 16 3f c8 87 06 3f
       0.15812711 0.094580606 0.5866868 0.52550936
000170 e3 1b 4d be 3e 53 b4 be 75 a4 05 3f 05 a4 b2 3e
       -0.20030169 -0.3521976 0.52204067 0.34890762
000180 01 0b 4d 3e ab 45 b9 be 4c bd 90 bd dd 87 80 3c
       0.20023729 -0.36185965 -0.070673555 0.015689785
000190 33 b7 89 3e da cc 4d be 53 9d 41 bd 21 e7 57 3e
       0.26897582 -0.20097676 -0.047269177 0.21084262
0001a0 d9 d0 a6 be e4 cb 84 3e 46 e6 2c 3f 63 c0 06 3f
       -0.32581213 0.25936806 0.6753887 0.5263731
0001b0 d9 e4 9c 3e f5 a2 b4 3d c9 ae 7a be 3c a2 0c bf
       0.30643347 0.08820144 -0.24480738 -0.5493505
0001c0 ba b8 a4 3e 12 68 95 bd 57 c0 ad be af 5c 18 bf
       0.32172185 -0.072952405 -0.33935806 -0.59516424
0001d0 b8 12 cc 3d c2 cc e4 3e 85 02 3f 3e 47 ed 52 bc
       0.09964508 0.44687468 0.18653305 -0.012873954
0001e0 56 a6 dd bd f0 2d ba be b5 06 0d 3f a8 d9 9c be
       -0.10822742 -0.36363173 0.5508836 -0.3063481
0001f0 4f 6a bf 3e 5b b3 ae be 3c f5 a7 be 18 0b f0 3d
       0.37385795 -0.34121212 -0.32804286 0.11720866
000200 c4 24 80 3e f8 22 f4 3a 4b f2 03 3f ce c5 57 bc
       0.2502805 0.0018626144 0.51541585 -0.013169719
000210 a6 85 ce bd 86 2f 21 3e ae 9a 02 be 8e bf 47 be
       -0.10084085 0.15740785 -0.12754318 -0.19506666
000220 7e e3 54 bd 45 bd 61 bc 1f 11 7f 3e fb 7a 86 be
       -0.051974766 -0.0137780355 0.24908875 -0.26265702
000230 32 26 18 be 05 99 05 be 11 f4 0b 3e 18 df f2 be
       -0.1485832 -0.13046654 0.13667323 -0.47435832
000240 e6 75 db 3e ff 31 83 be 3e 4f 87 3e f6 df 49 be
       0.42863387 -0.25624081 0.26427644 -0.1971434
000250 76 9b 36 3e ca c3 3c 3e d4 69 d2 bd 32 bc 70 be
       0.17832741 0.18434063 -0.10274091 -0.23509291
000260 ae 8c b7 be d5 64 bd be 95 0e f9 bd 02 fa ec bd
       -0.35849518 -0.3699099 -0.121609844 -0.11571123
000270 ae 60 1c 3e 9a ff 2c bc 47 6a ef be ef 66 b2 3c
       0.15271255 -0.010558987 -0.4676077 0.021777598
000280 58 ca 75 be b0 b2 c1 be b0 e0 15 3d 63 68 ab 3e
       -0.2400297 -0.3783164 0.03659123 0.33478078
000290 b0 61 a0 be ee f2 4d 3d e4 8d d8 3c 68 32 20 be
       -0.3132453 0.050280504 0.026434846 -0.15644228
0002a0 29 e5 e1 be d5 66 33 be 58 9a cf bc c5 c1 09 3f
       -0.44120148 -0.17519696 -0.025342152 0.53811294
0002b0 ff 89 9c 3d a7 37 28 3e d6 ed f5 3e 80 fa ce 3e
       0.07643508 0.1642748 0.48033017 0.4042549
0002c0 5c 07 90 be 37 5c 69 be 94 36 50 3f 7c c0 8d 3e
       -0.28130615 -0.22789083 0.8133328 0.27685916
0002d0 15 9d ed 3e e2 6c 35 3e 77 3a f4 3e a8 33 5b 3e
       0.46408907 0.17717317 0.47700855 0.21406424
0002e0 b8 34 0b bd 90 77 2b bc 26 1e fa be 75 ba 4c be
       -0.033985823 -0.010465518 -0.48851126 -0.19993003
0002f0 3d 6d c9 3e 24 17 a7 3e 64 9b 8e 3e 0b 0e 9f 3b
       0.39341155 0.32634842 0.2785293 0.004853969
000300 18 a8 97 be f5 bb 04 bf 3e 98 f2 3d 38 72 6c 3e
       -0.29620433 -0.518493 0.11845444 0.23090446
000310 e5 99 94 3d a3 b4 85 be 57 13 ef be ff c8 e8 be
       0.072559156 -0.26114377 -0.46694443 -0.45465848
000320 91 13 f1 3d bf 39 2a 3e 9e 97 18 3f 26 9d d4 3e
       0.1177131 0.16623591 0.5960635 0.41526145
000330 f9 b2 eb be 47 55 b2 be 30 06 1d 3f 79 44 ca 3e
       -0.46034983 -0.34830686 0.61337566 0.39505365
000340 c8 20 51 be e8 92 62 be 2b 48 2e be 27 bb 10 bf
       -0.20422661 -0.22126353 -0.17019717 -0.5653557
000350 b1 e4 ac 3e b4 86 f0 be f6 86 3b 3d af 99 09 bd
       0.33768228 -0.4697777 0.045783006 -0.03359383
000360 d0 cf 31 3e 14 f6 da be 3b f6 41 3f 49 7d 07 3f
       0.1736443 -0.42765868 0.7576634 0.52925545
000370 02 c7 6c be b6 0d 08 3e f3 05 51 be 9c b6 c7 be
       -0.2312279 0.1328648 -0.20412426 -0.39006507
000380 2d ac 8e be 96 d9 d2 be 42 24 fa 3d 25 b2 22 3e
       -0.27865735 -0.4118163 0.12213947 0.15888269
000390 d9 50 a9 3c ef 4e c4 be b2 e1 3e 3f e3 fc 28 be
       0.020668434 -0.38341472 0.74563134 -0.16502719
0003a0 a1 fc 19 bb 48 6e 0c be 5c 43 fc 3e d6 5e 7a 3e
       -0.0023496526 -0.13713944 0.4927014 0.2445024
0003b0 b9 61 f4 3e fc f5 b0 3e 1b fb 94 be f5 92 f5 be
       0.47730806 0.3456267 -0.29097828 -0.47963682
0003c0 fc d4 ce be 8e f7 c8 be a8 95 86 3e 50 da 1a 3e
       -0.4039687 -0.3925137 0.26286054 0.15122342
0003d0 27 73 55 3e 45 13 82 be e9 25 86 be 00 82 57 3e
       0.20844708 -0.25405326 -0.26200798 0.21045685
0003e0 7e 12 7d 3e d9 bc 4b bb fd 3f 14 3f 84 ab fc 3e
       0.24714085 -0.0031087904 0.5791014 0.49349606
0003f0 5b 6e 9a bd ad a8 a9 3e e6 18 4c bf c5 6c a1 be
       -0.0754058 0.33136502 -0.7972549 -0.31528297

bias f4 [128]
000000 74 22 f0 be cf 26 1e 3e 2e 9f 17 be 43 15 11 be
       -0.46901286 0.15444492 -0.14806816 -0.14168267
000010 15 2d e7 3e 13 97 48 be 7f c1 74 3e 61 7c ae be
       0.45151582 -0.1958888 0.23901938 -0.3407927
000020 0b d3 24 3e e0 e6 f0 be b0 d8 d4 3e ed 8c cb 3d
       0.16096132 -0.47051144 0.4157157 0.09938989
000030 b6 00 01 bf 7c 66 09 bf fd d3 e6 3e 91 84 98 3e
       -0.5039171 -0.53672004 0.4508361 0.2978864
000040 e5 f7 df 3d c5 d7 a4 3c 3e dd 14 be 94 09 f5 3d
       0.10935954 0.020122418 -0.14537522 0.119647175
000050 1e ec 80 3d 7d 95 cc be 37 fc 54 3e 53 cb 51 be
       0.06295036 -0.399578 0.20799337 -0.20487718
000060 24 d8 b9 3e 6e 35 06 3e d0 19 80 3e 91 ca 40 3e
       0.36297715 0.1310632 0.25019693 0.18827273
000070 be 06 a7 bd 75 7f e9 be 89 a9 d6 be 56 31 5c be
       -0.08155583 -0.45605054 -0.4192622 -0.21503195
000080 0e 6e 4f be 47 29 90 bd 88 67 72 3e be c7 c5 be
       -0.20256826 -0.07039123 0.23672307 -0.38628954
000090 36 22 55 be 73 36 f0 be 5c 20 20 be df e2 c9 be
       -0.20813832 -0.4691654 -0.15637344 -0.394309
0000a0 7c e2 c0 3d 02 dd 2a 3e 5d ac 76 bd 82 4e db 3d
       0.094181985 0.1668587 -0.060222972 0.107083336
0000b0 ef be 93 3e 32 d4 8b 3e d7 c5 77 3c 20 2a db be
       0.28856608 0.2731033 0.015122852 -0.42805576
0000c0 c2 10 f7 be 08 b3 9b 3e 00 b6 5e 3e 90 4a 71 3e
       -0.48254973 0.30410028 0.21749115 0.235636
0000d0 1a ad db be a0 aa b4 3e e9 9a 64 3e 8c 2d 81 be
       -0.42905504 0.35286427 0.22324719 -0.25230062
0000e0 a7 c7 80 3e c2 71 ae 3e 92 8f ba 3e af b5 a2 3e
       0.25152323 0.34071165 0.3643766 0.3177924
0000f0 77 03 92 3d 8c 32 c4 bc b0 f9 54 3e 19 e5 86 3e
       0.07129567 -0.023949884 0.20798373 0.26346663
000100 fa 49 3b 3e 08 6a 64 3c 26 1f 2a be 18 fc 25 3e
       0.18289939 0.013941295 -0.16613445 0.16209447
000110 7e ac 34 3e ba 71 43 bd 98 25 d9 bd f0 33 ae be
       0.17643926 -0.04771588 -0.106028736 -0.34024
000120 c6 3c 25 3e ac 59 df 3d b1 ed c6 3d 01 8d 8c 3e
       0.16136464 0.109057754 0.09713305 0.27451327
000130 27 8a 09 3e 87 12 ad 3d d4 7c 87 3e 46 ef b7 bd
       0.13431607 0.084507994 0.26462424 -0.08981185
000140 bb 7e 0d bf bb a3 77 3e 1b 20 bc 3e 28 6d fc be
       -0.552715 0.24183552 0.36743245 -0.4930203
000150 c0 c6 ee be 05 34 00 bd 52 6d 89 be 9f 6a aa 3e
       -0.4663601 -0.03129961 -0.26841217 0.3328447
000160 a8 e9 de 3e d7 e9 e0 be f1 e7 a6 3c d5 f1 8f bd
       0.4353764 -0.43928406 0.02037427 -0.07028548
000170 5f 0e 0e bf 9d a4 ba be 1d 21 6f bd c7 68 4e 3e
       -0.5549068 -0.36453715 -0.05838119 0.20157157
000180 ad c9 d3 be 52 a5 0f 3e e9 10 47 be 6c ce f4 3d
       -0.41364804 0.14027908 -0.19440044 0.11953434
000190 b2 3e aa 3e 93 7e 25 3e 37 56 d0 3d 3a 13 de 3c
       0.33250958 0.16161565 0.10172694 0.027108777
0001a0 20 4c 3d 3e 4c ab 71 3e 3a 3c d5 3e be ce 82 bd
       0.1848607 0.23600501 0.41647512 -0.06387089
0001b0 f9 df 9c 3d 6d 3d 4b 3e 3d 97 13 bf 01 a7 02 bf
       0.07659907 0.19847651 -0.57652646 -0.5103608
0001c0 80 fe 75 3e 71 04 f9 3d a3 84 09 bf d0 4a c4 3d
       0.24022865 0.1215905 -0.5371801 0.09584582
0001d0 dd 0a 00 bf d8 fd 0d bd 6d 51 98 3c 0f c9 7c be
       -0.50016576 -0.034665912 0.018593514 -0.24686073
0001e0 06 b8 55 be a5 5d fc be b7 55 ca be 73 da ee 3d
       -0.2087098 -0.49290195 -0.3951852 0.1166276
0001f0 ec 98 13 3e ae 27 48 bd d4 28 c6 be 7c 7a 85 be
       0.14413804 -0.048865966 -0.38703024 -0.2607001

weight f4 [2, 128]
000000 8e 44 a9 3d 9d a8 01 be 3d 45 8d 3d 89 8e 21 3e
       0.08265029 -0.12661977 0.06897972 0.15777029
000010 21 c0 21 bd 4c 86 66 bd 5b f3 09 3d 79 88 c1 bd
       -0.03948987 -0.05628042 0.033679347 -0.09449858
000020 96 44 f5 3b fa a4 f2 bc 01 5a ec 3d 9d 5a 2c be
       0.0074849827 -0.029619683 0.115406044 -0.16831441
000030 b9 ee e7 bd 94 ef 3b bc e6 78 1c be 23 8d b9 3d
       -0.113248296 -0.011470694 -0.15280494 0.09060123
000040 e1 ae 0a be 52 84 40 3d 0a 2c 83 bd 64 3c b0 bd
       -0.13543274 0.04700119 -0.06404884 -0.086052686
000050 bf c9 28 3e e9 d7 ce 3d c3 e4 e9 bd f1 e9 47 bc
       0.1648321 0.10099775 -0.11420586 -0.012201772
000060 b2 fc 31 39 8b 45 9d 3b 9d ba 18 be 09 c7 72 3c
       0.00016974172 0.00479955 -0.14914937 0.0148179615
000070 ab c8 90 3d ab 4c 1e bd 52 c9 45 bd e4 94 db 3d
       0.070695244 -0.038647335 -0.048287697 0.10721758
000080 9f 5b 0f bc b0 a7 4b 3d 83 05 f9 bb 71 9c b4 3c
       -0.0087498715 0.049720466 -0.007599534 0.022047253
000090 8a 82 ae bd 25 e0 17 3d 7a d4 fc 3c 6e b2 fd bd
       -0.08520992 0.037078995 0.030863035 -0.123875484
0000a0 5c 13 5b bd f4 34 33 bd 75 28 d3 bc 15 76 a3 bd
       -0.05348526 -0.043751672 -0.025776127 -0.07981507
0000b0 13 5e 19 be 33 15 f9 bd ad 98 68 3d 28 22 40 bd
       -0.14977293 -0.121622466 0.056786228 -0.046907574
0000c0 2f da 82 3d 83 d5 02 3e a8 b4 26 be 15 06 cf bd
       0.063892715 0.12776761 -0.16279852 -0.10108582
0000d0 6b 86 17 3e dd 54 28 3d 82 94 fe bd a0 ac ba 3d
       0.1479737 0.041096557 -0.12430669 0.09114957
0000e0 62 46 a5 bb f7 e5 65 bd e8 c1 0a be 12 1e ff 3d
       -0.0050437907 -0.056127515 -0.13550532 0.12456907
0000f0 78 f3 c5 bd c9 e7 c0 3c 8e 02 0d be da db 5b 3d
       -0.096655786 0.023548024 -0.13770506 0.053676464
000100 f0 ca 08 3e 39 e8 71 3e 8f c1 f3 bc 15 6f 64 3c
       0.13358665 0.23623742 -0.029755382 0.0139425
000110 af 02 7f 3e 56 2f f4 3c 9e 67 26 bd 4a bc 34 bd
       0.24903367 0.029807728 -0.04062616 -0.04412488
000120 4e 49 f8 bd b9 3c 01 3d c0 a5 10 bd 9c 56 8e 3c
       -0.12123357 0.03155205 -0.03531432 0.017375283
000130 f7 be 17 3e 55 ba 5d 3e cd ab fc 3b 4a 6b b4 bb
       0.14818941 0.21653111 0.00771091 -0.005505954
000140 6d 0a 30 bd 97 83 39 3d 1a 3b 02 3e a7 bc 29 3d
       -0.042978693 0.04529151 0.12717858 0.04143968
000150 3c 43 c6 3d 10 f1 c6 bd ec 42 b0 3d 77 ad a8 3c
       0.09680793 -0.09713948 0.08606514 0.020590527
000160 0a 67 c7 3d 0b cf 52 3d 6e 6a fa bd 63 0f c6 3d
       0.0973645 0.051466983 -0.12227331 0.096709035
000170 7b 8e b2 3c 80 12 57 bd 84 51 ce 3c b3 4e c3 bd
       0.021796456 -0.052507877 0.025185354 -0.09536495
000180 5a d0 12 bd bf 98 d6 3d 5d 52 b5 bd 33 f0 2b 3d
       -0.03584323 0.10478353 -0.088536 0.04197712
000190 fd e3 8d bd 2a a3 64 b8 8f 67 2a 3b c9 6d 89 3d
       -0.06928251 -5.4511394e-05 0.0026001667 0.06710393
0001a0 8f 4f 20 3d 48 1e 78 bd a5 3a 25 3e 0b 7a 9c 3d
       0.039138373 -0.060575753 0.16135652 0.07640465
0001b0 c3 d2 33 be 54 37 74 3e d7 b3 6e bd 0e ef 03 3d
       -0.17560868 0.23849231 -0.058276977 0.032210402
0001c0 29 d8 8e bd 5d bc e6 3d f3 b4 96 bc 29 56 dc bd
       -0.06974823 0.11266396 -0.01839683 -0.10758621
0001d0 40 e8 bd 3d c4 57 98 3d 0e 66 90 bd 56 20 00 be
       0.09272814 0.07438615 -0.070507154 -0.12512335
0001e0 76 7d cc bc a1 aa 37 bd 68 9b 20 3d 5d cc 1e be
       -0.024962168 -0.04484046 0.039210707 -0.15507646
0001f0 ea 8e af 3d e6 5b 21 3e 63 31 fc 3c a0 7e 9d 3d
       0.085721806 0.15757713 0.030785268 0.076901674
000200 65 21 75 bd 34 73 02 3e 4a d2 8f bc 21 50 0d be
       -0.0598463 0.12739259 -0.017556328 -0.13800098
000210 70 25 f6 3d f1 33 74 bd 9f f8 4d 3d 75 b3 87 3c
       0.120188594 -0.059619848 0.05028593 0.016565064
000220 ce e2 b4 3c e9 b8 fc bd b4 54 1d 3c 3b 13 f7 3d
       0.022080805 -0.12339956 0.009602714 0.12064215
000230 2e 38 88 3d 9d 77 83 bd 21 da 3b 3e 2c 25 40 bd
       0.066513404 -0.06419299 0.18344928 -0.04691045
000240 9d d5 b5 3d 05 89 50 3c ff d4 ca 3d 8a a2 a5 3d
       0.08878634 0.0127279805 0.09903907 0.080876425
000250 51 db 43 bd 97 f8 41 bd 30 28 11 3e 71 0e 3c 3d
       -0.04781658 -0.047356214 0.14175487 0.04591221
000260 c3 cf 1a bd 4a f5 e7 ba b8 64 30 3e db 9d ec bd
       -0.037795793 -0.0017697003 0.17225921 -0.11553546
000270 b0 e4 3b bd 76 d6 07 bc 51 fe 34 3d 30 81 e8 bd
       -0.04587239 -0.008290878 0.044187848 -0.113527656
000280 17 4b 69 3d 71 58 05 3c 9f e8 e5 3b 0f 07 85 bd
       0.056956377 0.008138762 0.007016256 -0.06495487
000290 7b 83 04 3e dc 22 a4 3d cc 03 65 bc cc 78 fc 3d
       0.12940781 0.080144614 -0.013977956 0.12327728
0002a0 f6 32 eb 3d ae 83 25 bc 98 3a 9b 3d 3c 63 15 3e
       0.114843294 -0.010102196 0.07579535 0.14588636
0002b0 06 e7 99 3d 90 37 44 3d b8 48 33 be 94 72 76 3d
       0.07514767 0.04790455 -0.17508209 0.060167864
0002c0 0a 0a ff bd 72 a1 6f bd 6c 8a 26 3e 02 09 d3 3d
       -0.12453087 -0.058503576 0.16263741 0.103044525
0002d0 06 4f be bd 2f 10 8e bc 82 8a e7 3c 5e 37 52 be
       -0.09292416 -0.017341701 0.028264288 -0.20528933
0002e0 4c ae 99 39 ca 8a b3 bc b2 4a c9 3c d5 9e d4 bd
       0.00029312295 -0.021916766 0.02457175 -0.10381857
0002f0 ae 25 a5 bc ab a4 de bb 9b 34 c5 3d f4 9f b6 bd
       -0.020159569 -0.0067945323 0.09629174 -0.089172274
000300 16 54 71 be 07 01 d9 bd 98 ff 8b 3b 1f 80 47 bd
       -0.23567232 -0.10595899 0.0042724125 -0.04870617
000310 05 61 3b be 23 3c b5 bd c1 7e 0d 3d 65 40 54 3d
       -0.18298729 -0.08849361 0.03454471 0.051819224
000320 1e 7f 0b 3e 77 69 e5 bd e1 cb cc 3d 87 30 22 be
       0.1362271 -0.112017564 0.09999824 -0.15838824
000330 20 02 74 be 3f 78 44 bd 3e 84 48 3d 6d dc 0d bd
       -0.23828936 -0.047966238 0.04895424 -0.034634043
000340 a4 f6 b5 3d 8d ab a7 3d 8c 0f 1e bd 37 8c 76 bd
       0.088849336 0.081870176 -0.038589045 -0.060192313
000350 d3 38 75 bd 7e 85 a2 3c 2a 28 ef bb 9e 1c 84 3c
       -0.059868645 0.019839045 -0.007298489 0.016126927
000360 83 e0 78 bd 68 c9 b7 bd 2c 54 28 3d 6a 8d 01 be
       -0.060760986 -0.08973962 0.041095898 -0.12651601
000370 92 e2 2b be 7e 6b 95 3d f1 e6 1a be 61 0b ca 3d
       -0.16785648 0.07295893 -0.1512716 0.098654516
000380 4b 81 0b bc 6f e8 24 3d f8 dd 00 3e 3a 58 3a bd
       -0.008514713 0.04026073 0.12584674 -0.045494296
000390 13 cb 97 3c f4 ea cf 3d 5d 55 f4 bc 2f c9 10 be
       0.01852945 0.101522356 -0.02982586 -0.14139245
0003a0 8d 6b cc bc 0d 11 93 3d 3c d3 02 bd 93 f3 cc bd
       -0.024953628 0.071809866 -0.03193973 -0.100073956
0003b0 ae 49 44 3e 1a 8b 60 be 48 c6 91 3d 52 66 a9 3d
       0.19168732 -0.21928063 0.07117897 0.08271469
0003c0 64 2a de 3d 7a e1 3a be b6 db 0c 3d 6e 79 e6 bc
       0.10847929 -0.18250075 0.03438922 -0.028134074
0003d0 4e 95 92 bd eb 1f cc bd 45 cb da 3d 7c 68 a7 3a
       -0.07157384 -0.09967025 0.10683302 0.0012772228
0003e0 06 03 86 bd 7b ce f2 3d ca e9 49 3c b9 21 c9 3d
       -0.065435454 0.11855789 0.012323806 0.09820885
0003f0 77 a4 51 be 22 38 8f bd e6 47 6b 3c d7 29 c6 bd
       -0.20472895 -0.06993128 0.014360404 -0.09675949

bias f4 [2]
000000 16 3e 3b 3d 45 5a 49 bd
       0.045713507 -0.049158353
