01_Intro/models/nn_imitator.pt (torch_old, 271166 bytes, 4 tensors)

fc_in.weight f4 [512, 128]
-14.160186 -0.08013085 -3.3077426 -0.07480469 -7.874263 -2.7353847 0.06382758 -0.49118918
-8.01183 -0.85006624 0.07388887 -1.6456178 -3.477547 -0.9105775 -0.023763817 -4.6826906
-18.97273 -0.06369124 -1.2943697 -1.4707532 0.03815683 -6.107289 -0.030086074 -1.8062003
-9.52033 -2.3766246 -0.0846451 -6.3231316 -18.25305 -6.415534 -18.24624 -6.434532
-18.389597 -9.951907 -18.099018 -18.190626 -17.971392 -17.783733 -17.795895 -17.936638
-17.903582 -2.370675 -2.4252503 -4.7858806 -4.7238197 -4.811592 -13.887519 -4.8747315
-14.104869 -13.868892 -6.0348616 -5.542907 -2.6976347 -2.664442 -4.0420675 -0.046754796
-11.8954525 0.008978672 -16.03038 -8.0626955 -5.4390306 -2.692308 -2.807971 -14.159732
-14.288559 -14.246762 -14.159994 -13.18138 -14.302139 -16.183487 -18.40269 -15.118086
-18.262514 -15.337908 -18.356337 -14.969363 -18.285328 -0.0631408 -0.009889938 0.052325957
-0.04558819 0.05823522 0.014939375 0.08196876 -0.08071288 -0.066608824 -0.044724792 -0.02139154
-0.025825799 -0.051147625 -0.064599305 0.021597445 0.06909055 -0.070752725 -0.019462243 -0.049852747
0.053395756 -0.050701857 0.040870182 -0.045975372 -0.06159097 0.04401385 -0.06880419 -0.051045965
-0.05642503 -0.07801391 -0.035613727 0.035992384 -0.024384983 0.07885694 0.036544688 0.08499212
-0.08283319 -0.077493995 0.07809978 0.03522647 -0.041860618 0.009410784 -0.026007798 -0.053080827
0.011535898 -9.212609 -6.238298 -3.936925 -17.486355 -17.9407 -8.989081 -17.803411
-0.06519724 -0.02668263 -0.038672917 -0.08562017 -0.058100954 -0.031510245 -0.05990848 -0.07140636
0.0127812335 -0.06600885 -0.031951685 -0.10272755 -0.073078156 -0.002282232 0.04942534 -0.032461114
-0.14976917 0.0036138743 -0.17968751 -0.11201285 0.003051713 -0.014857218 -0.025783353 0.022316214
-0.14748767 0.051868 0.05053737 0.016109101 -0.09677664 -0.130625 -0.20451126 -0.013052979
-0.12241299 -0.12473918 -0.17679834 -0.077369116 -0.21739173 -0.069871075 -0.21515983 -0.22881578
-0.23072155 -0.002240314 -0.011646932 -0.11821994 -0.1287066 -0.04362602 -0.048300788 -0.06738431
-0.20988448 -0.0812377 0.048154496 -0.05641677 -0.08536149 -0.050365098 -0.015432268 0.0033969507
-0.020021282 -0.055144895 -0.08737226 -0.058778096 0.014837345 -0.03754201 0.009883295 -0.19804162
-0.18310916 -0.062535755 -0.071871735 -0.050000474 -0.041428726 -0.10385063 -0.13866484 -0.20735142
-0.18452737 -0.10581672 -0.16253729 -0.19161506 -0.101001315 0.041064866 -0.079183064 -0.04957252
-0.08220437 0.038422696 -0.00033809245 -0.011656046 -0.070053436 -0.0775238 -0.016030699 -0.03316803
0.02845867 -0.06792594 0.020880423 -0.060334496 -0.0604946 -0.040753156 0.055372395 0.000724189
-0.03722535 0.06612543 0.021733604 0.023993433 -0.06040094 0.08029408 0.07002292 0.047367476
-0.0623928 0.073698945 0.04968094 -0.057378463 0.038742833 -0.08810479 0.03890457 0.05010874
-0.03625453 0.020496458 -0.08022518 0.031642087 0.02425138 -0.0731045 -0.005986735 -0.035217
0.08631279 -0.029136222 0.03187462 -0.06417198 -0.10461398 -0.18773034 -0.07930187 -0.1775387
00000000: 1f90 62c1 a51b a4bd 0eb2 53c0 3433 99bd
00000010: f6f9 fbc0 8b10 2fc0 09b8 823d 267d fbbe
00000020: 7530 00c1 f19d 59bf 0c53 973d 9ba3 d2bf
00000030: 2190 5ec0 9b1b 69bf 56ac c2bc 9ad8 95c0
00000040: 27c8 97c1 8e70 82bd e8ad a5bf a441 bcbf
00000050: 564a 1c3d e96e c3c0 1277 f6bc 9231 e7bf
00000060: 4653 18c1 9e1a 18c0 695a adbd 1857 cac0
00000070: 3f06 92c1 0e4c cdc0 4df8 91c1 b0e7 cdc0
00000080: e51d 93c1 033b 1fc1 caca 90c1 6786 91c1
00000090: 69c5 8fc1 1645 8ec1 fe5d 8ec1 3c7e 8fc1
000000a0: 893a 8fc1 24b9 17c0 4d37 1bc0 ef25 99c0
000000b0: 8829 97c0 90f8 99c0 4733 5ec1 cdfd 9bc0
000000c0: 8bad 61c1 fbe6 5dc1 961d c1c0 7f5f b1c0
000000d0: 0ca6 2cc0 3886 2ac0 9e58 81c0 f581 3fbd
000000e0: c653 3ec1 481b 133c 383e 80c1 cd00 01c1
000000f0: 8a0c aec0 c64e 2cc0 ccb5 33c0 438e 62c1
00000100: f09d 64c1 bdf2 63c1 568f 62c1 efe6 52c1
00000110: 90d5 64c1 c877 81c1 b638 93c1 aee3 71c1
00000120: a119 92c1 1268 75c1 c7d9 92c1 8382 6fc1
00000130: 5a48 92c1 f74f 81bd 6809 22bc be53 563d
00000140: afba 3abd 0e88 6e3d 48c4 743c 3ddf a73d
00000150: cb4c a5bd 356a 88bd 5831 37bd 503d afbc
00000160: a090 d3bc 2c80 51bd a44c 84bd 20ed b03c
00000170: 597f 8d3d cee6 90bd 486f 9fbc 6532 4cbd
00000180: 82b5 5a3d c0ac 4fbd 7e67 273d ac50 3cbd
00000190: d046 7cbd de47 343d 36e9 8cbd 9315 51bd
000001a0: ef1d 67bd c2c5 9fbd b3df 11bd c06c 133d
000001b0: 04c3 c7bc bf7f a13d e2af 153d 5910 ae3d
000001c0: 73a4 a9bd 2cb5 9ebd c7f2 9f3d a249 103d
000001d0: 0a76 2bbd b02f 1a3c 4e0e d5bc 486b 59bd
000001e0: 1001 3d3c d966 13c1 23a0 c7c0 94f6 7bc0
000001f0: 0ee4 8bc1 8e86 8fc1 47d3 0fc1 636d 8ec1
00000200: 2186 85bd 8895 dabc 7e67 1ebd a159 afbd
00000210: 44fb 6dbd e310 01bd 9862 75bd 7f3d 92bd
00000220: 6168 513c a62f 87bd c5df 02bd d262 d2bd
00000230: 00aa 95bd 8091 15bb 3a72 4a3d f2f5 04bd
00000240: 175d 19be c0d6 6c3b 0100 38be fe66 e5bd
00000250: 40ff 473b b06b 73bc 9c37 d3bc 7ed0 b63c
00000260: 0207 17be 8a73 543d 4600 4f3d 3cf7 833c
00000270: d532 c6bd 8fc2 05be 666b 51be 29dc 55bc
00000280: a9b3 fabd 4177 ffbd a00a 35be b373 9ebd
00000290: f09b 5ebe 9118 8fbd dc52 5cbe af4e 6abe
000002a0: 4542 6cbe 3bd2 12bb c6d2 3ebc 4c1d f2bd
000002b0: aacb 03be 33b1 32bd 0cd7 45bd c900 8abd
000002c0: f5eb 56be f45f a6bd a63d 453d 4515 67bd
000002d0: 01d2 aebd a24b 4ebd a0d7 7cbc 609f 5e3b
000002e0: ac03 a4bc 9ddf 61bd 3af0 b2bd 4dc1 70bd
000002f0: 5618 733c a7c5 19bd 8bed 213c 6ccb 4abe
00000300: f880 3bbe bf12 80bd 7d31 93bd 4ccd 4cbd
00000310: 2bb1 29bd a4af d4bd 28fe 0dbe ee53 54be
00000320: bef4 3cbe 70b6 d8bd 2d70 26be bd36 44be
00000330: c7d9 cebd a233 283d bb2a a2bd 8e0c 4bbd
00000340: c45a a8bd 1e61 1d3d 0042 b1b9 00f9 3ebc
00000350: 2d78 8fbd ccc4 9ebd d052 83bc 33db 07bd
00000360: 2822 e93c c11c 8bbd 6c0d ab3c 4e21 77bd
00000370: 30c9 77bd c8ec 26bd 2ace 623d 80d7 3d3a
00000380: 9c79 18bd c56c 873d ac0a b23c e08d c43c
00000390: fa66 77bd 3971 a43d 2d68 8f3d 6604 423d
000003a0: 988f 7fbd 79ef 963d 3e7e 4b3d ae05 6bbd
000003b0: ceb0 1e3d 4970 b4bd 665a 1f3d d23e 4d3d
000003c0: a17f 14bd 30e8 a73c 194d a4bd 229b 013d
000003d0: d4aa c63c d0b7 95bd 602c c4bb b33f 10bd
000003e0: c3c4 b03d 16af eebc f68e 023d 996c 83bd
000003f0: db3f d6bd 623c 40be 0569 a2bd b4cc 35be

fc_in.bias f4 [512]
-0.11710399 -0.028788434 0.025995934 0.013069455 -0.034324065 -0.0018446594 -0.11613174 0.08615676
0.076801665 0.05455204 0.018543322 -0.08236143 0.05678815 0.02524566 0.0042391494 0.017556917
0.057261534 -0.644722 -0.054446056 0.070974566 0.07448812 0.03518994 0.03138535 0.04938634
0.033372335 0.002233182 -0.19437814 -0.021980843 0.043102376 0.0157169 0.00858213 0.0060522584
0.010697649 0.05697852 -0.05648379 0.044851135 -0.10788614 0.06557872 -0.0073455223 -1.2887317
0.08084913 -0.0552682 0.011441581 0.063842766 0.00786973 0.08667557 -0.08087461 0.08390781
0.030252183 -0.056579597 0.08019289 -0.07078088 -0.003667578 -0.08470409 0.05335691 0.041502513
-0.026156027 -0.00044102327 -0.05190747 0.05749919 -0.092231706 0.08573064 -0.042619463 -0.07594132
-0.08531539 -0.002409935 0.025336832 -0.05023437 -0.073461294 -0.080387235 -0.050936624 0.08642064
-0.0011995435 0.023237929 -0.05960191 0.042601194 0.079310045 0.030134099 -0.047107454 0.03671091
0.03708955 -0.058639467 -0.08267104 -0.03241811 -0.061583303 -0.075780064 0.020988658 0.08675351
-0.0664984 -0.02782696 -0.06838731 0.024273792 -0.0287243 0.03897307 0.028336449 -0.0429439
-0.04106108 0.0124451695 0.05356675 -0.077254064 0.021869741 0.030297361 -0.4337052 -0.020591643
0.0041800933 -0.0044382643 0.029639082 0.0014451072 -0.034291517 -0.04949968 0.083045535 -0.07351275
-0.01949437 -1.2241073 0.08528455 0.07249005 -0.07262986 -0.06433309 -0.001510442 -0.016127424
-0.055138387 -0.014771424 0.020344613 -0.00032667816 -0.010354087 0.017410144 0.044257954 0.053543806
-0.0755208 -0.044648487 -0.010265354 0.07720008 -0.00030473646 0.008090069 -0.18768397 0.0016959701
-0.012158923 0.06944724 0.062476415 0.034353904 0.038734447 0.0027618287 0.06223599 0.026523171
-0.011736594 0.06799888 0.028531631 0.06871938 -0.028984282 0.026427515 -0.08228112 0.05068154
-0.07306024 0.022003308 -0.029123653 0.029834198 -0.07303764 0.08383112 -0.02610568 -0.08169015
0.060800068 0.08749536 -0.076325186 -0.056700785 0.062008116 0.027418017 0.02986745 -0.069037095
-0.06676625 -0.081743196 -0.18740673 -0.0021897256 0.019205106 0.032165628 -0.00081762817 -0.019021671
-0.040309545 0.05644271 -0.08013788 0.012420201 0.08582514 -0.0491592 -0.07060608 -0.014636071
-0.065288916 -0.0714124 -0.03744172 -0.08723121 0.05674599 0.07200261 0.02036438 -0.054744657
-0.045502216 0.038012855 0.05308984 -0.04815312 0.026829801 0.055580847 -0.058855504 -0.012622826
0.008884146 -0.047499526 0.03127013 -0.060865127 -0.054414142 -0.08736458 0.04018234 -0.021729693
0.0549734 0.015737308 -0.029791016 -0.02087327 -0.061313108 0.07562492 0.08407887 -0.08318403
-0.02326937 -0.090841 0.081732765 0.07579001 0.05375682 -0.060220845 -0.08172344 0.06510485
-0.016771177 -0.041666962 -0.021209389 -0.09824191 0.03986089 0.0055462993 0.011163377 -0.04414048
0.0811676 -0.035566542 0.06661574 0.0814657 -0.0806878 -0.09374132 0.07694993 -0.032574896
-0.0054432666 -0.024772342 0.047266506 0.06283691 0.051323455 -0.08194368 -0.08093663 0.013313651
-0.024114845 0.04695403 -0.046696454 0.0012002662 -0.029645309 -0.056635458 -0.0011755825 -0.0810022
00000000: 37d4 efbd b9d5 ebbc 6df5 d43c 4421 563c
00000010: 6497 0cbd 80c8 f1ba 7ad6 edbd f572 b03d
00000020: 314a 9d3d f671 5f3d 2ae8 973c 1cad a8bd
00000030: b19a 683d fdcf ce3c 90e8 8a3b 86d3 8f3c
00000040: 128b 6a3d 800c 25bf d402 5fbd 1d5b 913d
00000050: 3a8d 983d 5423 103d ed8d 003d 5549 4a3d
00000060: 6eb1 083d 945a 123b 100b 47be 2b11 b4bc
00000070: 1e8c 303d bac0 803c 109c 0c3c 0652 c63b
00000080: 3145 2f3c 4f62 693d 8c5b 67bd d3b5 373d
00000090: 69f3 dcbd 234e 863d b5b2 f0bb 29f5 a4bf
000000a0: 3b94 a53d e860 62bd 7875 3b3c ffbf 823d
000000b0: 0af0 003c f682 b13d 96a1 a5bd dcd7 ab3d
000000c0: 6dd3 f73c 02c0 67bd 2b3c a43d 91f5 90bd
000000d0: c05b 70bb 5779 adbd c68c 5a3d 8afe 293d
000000e0: 2a45 d6bc 2439 e7b9 ed9c 54bd 4584 6b3d
000000f0: fae3 bcbd 8c93 af3d bf91 2ebd 1f87 9bbd
00000100: d6b9 aebd 00f0 1dbb 308f cf3c 8ec2 4dbd
00000110: e072 96bd 10a2 a4bd eca2 50bd 4efd b03d
00000120: 003a 9dba 785d be3c 2221 74bd 977e 2e3d
00000130: 4e6d a23d c9db f63c bff3 40bd 2e5e 163d
00000140: 36eb 173d f02f 70bd 6f4f a9bd dac8 04bd
00000150: c63e 7cbd 9432 9bbd 68f0 ab3c d3ab b13d
00000160: 5030 88bd 5df5 e3bc a50e 8cbd d5d9 c63c
00000170: 394f ebbc 3aa2 1f3d d721 e83c f1e5 2fbd
00000180: aa2f 28bd d3e6 4b3c cf68 5b3d 6137 9ebd
00000190: 2c28 b33c 2c32 f83c 9c0e debe ceaf a8bc
000001a0: 2af9 883b dc6e 91bb a9cd f23c c069 bd3a
000001b0: 4375 0cbd 2dc0 4abd c713 aa3d da8d 96bd
000001c0: a8b2 9fbc 8caf 9cbf aba9 ae3d aa75 943d
000001d0: f7be 94bd 11c1 83bd 06fa c5ba a91d 84bc
000001e0: cad8 61bd d803 72bc bfa9 a63c 0046 abb9
000001f0: 30a4 29bc b89f 8e3c d447 353d c050 5b3d
00000200: a6aa 9abd 55e1 36bd 0430 28bc 131b 9e3d
00000210: 09c5 9fb9 358c 043c 3a30 40be 504b de3a
00000220: 3836 47bc 5b3a 8e3d 45e7 7f3d aeb6 0c3d
00000230: 03a8 1e3d ccff 343b 2aeb 7e3d 1f47 d93c
00000240: d84a 40bc ff42 8b3d 2bbb e93c bfbc 8c3d
00000250: 7270 edbc 847e d83c 0183 a8bd 7297 4f3d
00000260: 9ba0 95bd 4840 b43c ba94 eebc d966 f43c
00000270: c294 95bd a6af ab3d 94db d5bc 2a4d a7bd
00000280: 7e09 793d c430 b33d 6150 9cbd 153f 68bd
00000290: 39fc 7d3d c09b e03c 95ac f43c 5263 8dbd
000002a0: bebc 88bd fa68 a7bd 8de7 3fbe 8081 0fbb
000002b0: 0754 9d3c 1bc0 033d 1956 56ba 56d3 9bbc
000002c0: 9f1b 25bd 7930 673d 541f a4bd 197e 4b3c
000002d0: 17c5 af3d 285b 49bd ec99 90bd 22cc 6fbc
000002e0: 32b6 85bd aa40 92bd 7d5c 19bd 47a6 b2bd
000002f0: 7c6e 683d 1b76 933d 33d3 a63c ef3b 60bd
00000300: 8860 3abd 5eb3 1b3d bb74 593d 353c 45bd
00000310: 2cca db3c bea8 633d 7812 71bd f8cf 4ebc
00000320: cf8e 113c dd8e 42bd 1c15 003d b64d 79bd
00000330: 5de1 5ebd 33ec b2bd 3d96 243d 7802 b2bc
00000340: ca2b 613d 87eb 803c 4a0c f4bc 6cfe aabc
00000350: 7423 7bbd 3de1 9a3d 8b31 ac3d 645c aabd
00000360: 689f bebc d90a babd 8263 a73d cb37 9b3d
00000370: 1c30 5c3d 22aa 76bd 9e5e a7bd b155 853d
00000380: b563 89bc faaa 2abd 50bf adbc 0e33 c9bd
00000390: 2c45 233d bbbd b53b 99e6 363c a6cc 34bd
000003a0: 333b a63d 39ae 11bd d56d 883d 7dd7 a63d
000003b0: a53f a5bd 73fb bfbd ed97 9d3d 416d 05bd
000003c0: 6e5d b2bb 5eef cabc 869a 413d a3b0 803d
000003d0: 8b38 523d 17d2 a7bd 1bc2 a5bd 8021 5a3c
000003e0: 7f8c c5bc de52 403d c844 3fbd 4052 9d3a
000003f0: b8da f2bc 95fa 67bd 0116 9aba 7be4 a5bd

fc_out.weight f4 [3, 512]
61.047306 -112.03688 0.118639395 -79.34227 10.15819 -30.283453 47.822144 7.202444
19.941488 0.20464829 58.865448 -52.37435 12.490498 17.216572 3.4608912 44.770206
55.595844 15.434114 -37.17558 13.13954 139.09923 18.037157 -0.009034834 -1.3630528
6.2026205 -0.721882 -17.494614 10.179214 52.540157 4.032796 -3.1765096 30.490675
-0.17602977 -42.535618 0.35755375 66.184715 62.95293 -22.09086 21.406937 45.050762
-5.509339 10.937058 -5.4239664 -1.8688216 42.672375 -10.672707 -49.712944 -16.888922
51.519367 50.16051 -29.694664 -8.481461 -2.769916 0.025768522 117.19139 61.25673
-62.351124 31.249987 0.6087284 30.989548 -103.391846 -56.838917 -0.68157613 30.18209
-40.94288 -34.720318 12.292267 0.62102485 -6.622501 -1.5954039 61.932095 -0.10390403
-28.170446 -0.16458246 44.06727 29.317152 52.30861 9.144565 0.06565246 -70.56566
-2.1923828 32.154495 0.8846883 -9.157817 35.81177 45.62247 113.294426 39.854942
74.88773 -34.871243 -10.41966 98.26938 30.540295 -0.8041032 1.9862034 -1.6951377
18.243223 -17.131247 14.534717 -4.178453 -88.49163 -8.355295 -10.614833 7.093992
-76.031685 -23.32787 85.4542 -21.291166 64.41083 26.61905 -0.22017947 -94.84623
11.7314205 -12.046821 -22.024591 -6.6395082 0.32121807 -25.521208 -7.1563673 -0.23058395
2.1113577 -45.408573 -0.29528075 17.120237 42.048134 2.317275 54.236813 -4.3333583
0.61974823 -25.733992 -29.434414 1.9416057 -0.039691478 -55.3716 14.378264 33.406437
-1.3864609 4.290182 -141.17607 0.037507128 -26.82754 -7.501554 10.642905 -65.410904
-11.081486 4.962992 0.034358326 0.011693053 -0.017451076 -7.2976527 39.645958 2.9536598
-0.46340787 -1.5359936 67.39139 -1.0949078 -18.314562 36.710297 50.26283 2.5106869
-1.1527609 -12.250075 -51.0908 2.034722 -0.14714493 -26.819582 -50.82379 1.7208761
-42.200256 61.56269 -9.463918 37.999573 48.787064 9.230709 -19.858837 14.909844
1.1817644 -31.348982 -2.9424212 3.7322884 129.5411 6.963691 -5.542314 7.1668396
19.109285 -34.592648 45.17006 0.44138643 -34.392574 17.308128 -35.784294 -0.036455758
-16.0701 26.604698 -55.872906 58.33278 -1.7938137 27.997791 -21.709724 0.027512949
29.700129 -6.6380944 4.673032 30.989794 -107.89095 9.224836 -0.18767971 35.704403
-19.488785 -93.10157 46.69191 -70.99314 26.348137 87.74874 0.55559516 -0.3042662
89.61755 -0.73702765 37.673626 66.2927 -2.4502423 39.128365 20.116083 0.35502365
36.01914 34.56531 26.439676 12.272748 3.3950608 3.4430566 -12.582569 7.0254097
72.59191 2.5199826 21.651213 -3.1040545 -52.01161 -11.086852 -36.687286 -96.71703
-37.032417 6.2760234 4.334568 32.938297 24.172773 34.42845 80.60485 47.055252
-8.232592 -10.191088 56.84174 82.82843 0.038932107 9.556939 -86.37397 39.930275
00000000: 7130 7442 e212 e0c2 36f9 f23d 3eaf 9ec2
00000010: f287 2241 8344 f2c1 e049 3f42 6c7a e640
00000020: 2b88 9f41 528f 513e 3876 6b42 567f 51c2
00000030: 14d9 4741 8abb 8941 3e7f 5d40 b114 3342
00000040: 2562 5e42 22f2 7641 cbb3 14c2 8e3b 5241
00000050: 6719 0b43 194c 9041 d706 14bc 8478 aebf
00000060: de7b c640 42cd 38bf f8f4 8bc1 0fde 2241
00000070: 1f29 5242 aa0c 8140 ef4b 4bc0 e7ec f341
00000080: 2641 34be 7924 2ac2 4911 b73e 935e 8442
00000090: cdcf 7b42 15ba b0c1 6841 ab41 fb33 3442
000000a0: 814c b0c0 31fe 2e41 2291 adc0 8c35 efbf
000000b0: 83b0 2a42 68c3 2ac1 0eda 46c2 831c 87c1
000000c0: d513 4e42 5da4 4842 ac8e edc1 10b4 07c1
000000d0: 4e46 31c0 8218 d33c fe61 ea42 e406 7542
000000e0: 8d67 79c2 f9ff f941 a0d5 1b3f 98ea f741
000000f0: a0c8 cec2 0d5b 63c2 c67b 2ebf ec74 f141
00000100: 82c5 23c2 9be1 0ac2 20ad 4441 7cfb 1e3f
00000110: 87eb d3c0 3236 ccbf 77ba 7742 a3cb d4bd
00000120: 135d e1c1 4e88 28be e244 3042 8789 ea41
00000130: 043c 5142 2350 1241 cc74 863d 9e21 8dc2
00000140: 0050 0cc0 349e 0042 ef7a 623f 6b86 12c1
00000150: 413f 0f42 697d 3642 bf96 e242 766b 1f42
00000160: 85c6 9542 277c 0bc2 edb6 26c1 ec89 c442
00000170: 8652 f441 b5d9 4dbf ea3b fe3f 46fa d8bf
00000180: 1ff2 9141 cb0c 89c1 338e 6841 e3b5 85c0
00000190: b7fb b0c2 4aaf 05c1 5bd6 29c1 fc01 e340
000001a0: 3910 98c2 7a9f bac1 8de8 aa42 4f54 aac1
000001b0: 58d2 8042 d0f3 d441 ba76 61be 45b1 bdc2
000001c0: e6b3 3b41 c7bf 40c1 5d32 b0c1 da76 d4c0
000001d0: b276 a43e 6f2b ccc1 f600 e5c0 331e 6cbe
000001e0: 7c20 0740 61a2 35c2 0a2f 97be 3ff6 8841
000001f0: 4a31 2842 3c4e 1440 7ff2 5842 dfaa 8ac0
00000200: d2a7 1e3f 37df cdc1 ae79 ebc1 8986 f83f
00000210: 8893 22bd 857c 5dc2 5f0d 6641 31a0 0542
00000220: 8d77 b1bf 2c49 8940 132d 0dc3 13a1 193d
00000230: cd9e d6c1 bb0c f0c0 5749 2a41 62d2 82c2
00000240: c44d 31c1 d5d0 9e40 51bb 0c3d 3894 3f3c
00000250: 8ff5 8ebc 5f86 e9c0 7695 1e42 c308 3d40
00000260: cc43 edbe 709b c4bf 64c8 8642 f025 8cbf
00000270: 3984 92c1 58d7 1242 230d 4942 18af 2040
00000280: ab8d 93bf 4f00 44c1 fb5c 4cc2 e338 0240
00000290: 29ad 16be 818e d6c1 904b 4bc2 ab45 dc3f
000002a0: 10cd 28c2 3240 7642 356c 17c1 90ff 1742
000002b0: f425 4342 fcb0 1341 e6de 9ec1 b98e 6e41
000002c0: 0e44 973f b7ca fac1 a150 3cc0 d0dd 6e40
000002d0: 868a 0143 8fd6 de40 a35a b1c0 c056 e540
000002e0: d1df 9841 df5e 0ac2 24ae 3442 67fd e13e
000002f0: ff91 09c2 0c77 8a41 1e23 0fc2 a252 15bd
00000300: 918f 80c1 6cd6 d441 db7d 5fc2 c454 6942
00000310: b09b e5bf 7afb df41 84ad adc1 d662 e13c
00000320: dd99 ed41 456b d4c0 7a89 9540 19eb f741
00000330: 2bc8 d7c2 ee98 1341 1c2f 40be 4fd1 0e42
00000340: 08e9 9bc1 0134 bac2 84c4 3a42 7dfc 8dc2
00000350: fcc8 d241 5b7f af42 7c3b 0e3f c8c8 9bbe
00000360: 303c b342 d8ad 3cbf cbb1 1642 dd95 8442
00000370: c5d0 1cc0 7283 1c42 bded a041 a9c5 b53e
00000380: 9913 1042 e142 0a42 7584 d341 2d5d 4441
00000390: ad48 5940 0a5b 5c40 3452 49c1 28d0 e040
000003a0: 0f2f 9142 6547 2140 af35 ad41 d4a8 46c0
000003b0: e30b 50c2 bf63 31c1 c8bf 12c2 1f6f c1c2
000003c0: 3221 14c2 2fd5 c840 c8b4 8a40 d1c0 0342
000003d0: d761 c141 bcb6 0942 af35 a142 9438 3c42
000003e0: b2b8 03c1 b20e 23c1 f15d 6342 28a8 a542
000003f0: 4677 1f3d 39e9 1841 79bf acc2 9ab8 1f42

fc_out.bias f4 [3]
-43.755318 28.284983 15.531303
00000000: 7205 2fc2 a547 e241 3880 7841
